gae_64x5/GAE__64-64-64-64-64__lr0.001__batch_size64__l25e-06_model.pt (torch_old, 274639 bytes, 30 tensors)

encoder.0.weight f4 [22, 64]
00000000: 0db5 e83d 11e6 883b 38ba cabd b11b 773d
00000010: 167d a6bd fbb1 963c 0fa6 b23c 6865 79bc
00000020: 0c9c e4b9 b67f 183e e506 c13d 598f 2d3c
00000030: a244 3a3e 335e 34bd 2b67 873d efb1 0f3d
00000040: 0a3f aa3c dd57 f03c f357 3c3c 6042 ca3b
00000050: eb96 8a3b be78 6bbb 4b96 4b3e 1354 3e3c
00000060: a612 e83c ee53 5b3c 63e7 f23c 8e50 763c
00000070: 27d8 573e be23 a9be 9ec2 e93b 26b3 7a3d
00000080: ed12 debc f277 3e3d fd29 3c3c 6285 193b
00000090: 6fbe 783e ffc5 093d c995 f53c 3aec d83d
000000a0: cde6 b6bc a15e ccbe 27ee 303e 5357 a7bc
000000b0: 1035 0abd 4b0d 8b3c 280a 283e d659 3abe
000000c0: 27f8 383d 6653 07be 7bc5 e73d 101f b43b
000000d0: c83c 6ebd 1ee1 843c 5177 cc3d fdb9 c03c
000000e0: 8a89 00bd 396b a73c 75b4 5d3d 848a 853e
000000f0: ad9f 1f3e b9f3 783e 257d 203d d1f2 72bf
00000100: d538 c43d 6b09 ab3d 6bc6 5fbe 81be e53c
00000110: 32bb 603d 8be9 8e3d 5961 5b3e 64ea ac3d
00000120: 160f e5bc 88ef eb3d 1191 633e 6ad7 12be
00000130: f946 db3c 9e4c 7a3d 5a81 043c 9a2f 64bd
00000140: 782c d63d e218 223e 57eb 97be f0bb 9b3d
00000150: 71ad 91be d88f 063e 9bf2 2b3e 3690 6a3d
00000160: b0a2 0d3e b5bb 8d3b 731e 5a3d 23dc c93d
00000170: 9828 0f3d a1ca 113d b9c3 833c 024d 113e
00000180: 875e 213e 67ef 933d 35e9 7b3e 1cbd 313d
00000190: c85b 833d 32bb 6c3d 1542 793d bd11 33bc
000001a0: 7e0d 2f3d 3b9d 493e f2d4 ce3d 9911 c73d
000001b0: 6999 333d 34e0 c13d 291e 44be abc9 873d
000001c0: 4875 a93d b046 193e 2cd6 5d3d e3ec ba3d
000001d0: 3421 543e 9119 823e 09b9 103e a6c9 0c3e
000001e0: a4e4 c9bd ed24 cf3c 15dd 1bbd 8f8e 973d
000001f0: 6c72 32be 875c 553e a1ae c83d 0519 c53d
00000200: 4b4c 003e 3dbb 5bbb 79c2 403e a590 3bbd
00000210: 01ef d2bd e8c1 2bbb 0d59 75bb 2dec 563e
00000220: 98f4 d73d 5e68 00bd 8ed4 193d ec50 883c
00000230: debd 3ebe af30 c43b d4fd 0bbe 77dd e33c
00000240: 6890 673c 5ab5 373e 1c3c a73c 1390 d1bd
00000250: 3923 9d3e 432b 22bf d8d9 363e 6b55 513c
00000260: 2aeb 0f3b 3916 9dbc 5d77 3b3c 6d95 36bf
00000270: d0cb 3b3d c1ce 0c3e f77e 223b ac64 123e
00000280: a4d9 183d d949 9dbb b4d7 803d f8fd 90b9
00000290: 2433 ae3d dd41 b83c d668 273c 82b4 c0bb
000002a0: df1d 37bd b9b9 243d 6cc5 8e3d f37f 1b3d
000002b0: 18be 883c b83e d33c a2fa 7c3d 7925 f43c
000002c0: db4d 483c 868b 7ebd 629a 283e aae2 fe3c
000002d0: bd8b 66bc fb35 c73c 26b9 923e 106d 383c
000002e0: ca94 a8bd 1808 873c f23f 093d b732 c63d
000002f0: bf3f 71be 8f4d 303e efd3 cd3c be48 153c
00000300: 72ff d7be 7b71 503d 9176 3f3e 0e14 12bd
00000310: dca9 7a3e 318f b63b 3d33 d4bb cedb 2f3d
00000320: f0e1 c73c b10e 763e dcb9 043c 58d0 ff3c
00000330: 842c eabd 9029 553c 0244 73bd 74fb 213d
00000340: ed82 243b e2c5 29be 4392 b23b 3598 53bc
00000350: f323 d9bd d696 3f3d 8839 253e 3781 173c
00000360: fe8b 893c c70d 673c 6a54 5b3c bf23 9c3c
00000370: fbcc 973d a3f6 853c 0761 b6bc fedb c33d
00000380: ad9a 773a 8225 aa3b 3078 7c3d 4742 85bb
00000390: 7b13 3f3d 82f8 a63b be3b 26bf e5ed e53c
000003a0: 267a 6ebd 7574 013d 4406 303e ba45 48bd
000003b0: 6e66 41bc 7cde f03c 3f4f 9dbb 66a4 493d
000003c0: a143 7ebc 0bfa ee3d 99d1 b53d b6ea 8b3c
000003d0: 31df 40be 76cb a33b 2fca 1f3d b1c1 453d
000003e0: 44c9 103d 30e2 c739 08b9 14bd f876 4f3c
000003f0: 1c0c 8f3d 5cfc 243d c548 a23b 9ebc 6d3c
0.11362658 0.0041778167 -0.098988 0.060329143 -0.08129327 0.018395415 0.021807699 -0.015221931
-0.00043603813 0.14892468 0.09425143 0.010593259 0.18190244 -0.044035148 0.066114746 0.0350818
0.020782012 0.029338771 0.011495578 0.0061724633 0.0042294166 -0.0035930122 0.19881551 0.011616725
0.028329205 0.01338671 0.02965135 0.015033854 0.2107855 -0.33035082 0.007133796 0.061206006
-0.027108634 0.046501108 0.01148462 0.002342545 0.24291395 0.03363609 0.02997865 0.10591932
-0.022326851 -0.39915946 0.17278348 -0.020427382 -0.03374201 0.016974112 0.16410124 -0.18198332
0.04515853 -0.13215408 0.11316963 0.005496867 -0.058163434 0.016220625 0.09983695 0.023526186
-0.031381167 0.02043687 0.054127175 0.26082242 0.15588255 0.24311723 0.039181847 -0.9490176
0.09581152 0.08351406 -0.21853034 0.02804494 0.054866023 0.069781385 0.21423854 0.08443144
-0.027961295 0.11520296 0.22223307 -0.14339986 0.02676724 0.061108224 0.00808748 -0.05570946
0.104577005 0.15829805 -0.29671738 0.076042056 -0.28452638 0.1314081 0.16791765 0.057266437
0.13831592 0.004325355 0.053251695 0.09856441 0.034950823 0.035593633 0.016084539 0.14189532
0.15758716 0.07223397 0.2460068 0.04339324 0.0641399 0.05779571 0.060854036 -0.010929522
0.042737477 0.19688885 0.1009921 0.09720153 0.043847475 0.094665915 -0.1915213 0.06630262
0.08274323 0.14968371 0.05415933 0.09127214 0.20715791 0.2541013 0.14133085 0.13748798
-0.09858063 0.025286162 -0.038052637 0.07400238 -0.17426461 0.20836078 0.09798933 0.09623913
0.12529103 -0.003352835 0.18824185 -0.04579224 -0.102994926 -0.0026208106 -0.0037437112 0.20988531
0.105446994 -0.031349532 0.037556224 0.016640149 -0.18627116 0.005987249 -0.13671046 0.027815564
0.01413355 0.17940274 0.020414405 -0.10232558 0.30690935 -0.6334726 0.17856538 0.012776713
0.0021960237 -0.019175636 0.011442033 -0.71321756 0.045848668 0.13750745 0.0024794915 0.14296216
0.037316933 -0.004800063 0.06291142 -0.00027655042 0.08505848 0.022492344 0.010217866 -0.005880893
-0.04470622 0.04021618 0.06971249 0.03796382 0.016692206 0.025786743 0.06176246 0.029803025
0.012225593 -0.06214478 0.16465142 0.031113941 -0.014071402 0.024317732 0.28656882 0.011256471
-0.08231504 0.016483352 0.03350825 0.09677642 -0.23559473 0.17217086 0.025125472 0.009111581
-0.42187077 0.050889473 0.18697573 -0.035663657 0.24478859 0.005571269 -0.0064758346 0.04293423
0.024399728 0.24029042 0.008100953 0.031227276 -0.11434272 0.013010398 -0.05939103 0.039546445
0.0025102452 -0.16579393 0.0054495647 -0.012914707 -0.1060256 0.046774708 0.16135228 0.009247116
0.016790386 0.014102406 0.013386825 0.019060014 0.07412144 0.016352957 -0.022263063 0.095634446
0.0009445351 0.0051924596 0.061638057 -0.0040667388 0.046649437 0.0050955424 -0.6493491 0.028067539
-0.05822196 0.031605203 0.1718989 -0.04889462 -0.011804206 0.029402964 -0.0048007066 0.04922905
-0.015519054 0.11668786 0.08877868 0.017079692 -0.18835141 0.0049986197 0.039011177 0.04828042
0.03534819 0.0003812476 -0.036309272 0.012662642 0.069847316 0.04027973 0.0049525225 0.014510302

encoder.0.bn.weight f4 [64]
00000000: dc30 7b3f 4d8e 6d3f dcff 843f 6b1f 863f
00000010: 3001 4f3f 2a27 bc3f 5535 903f 2981 823f
00000020: cabc 553f f62e 883f 1145 5b3f 2eb1 773f
00000030: 2e07 923f 754f 973f 5788 543f 527e 8d3f
00000040: ac4a 903f 54d2 813f bcc7 923f 1f79 8f3f
00000050: dad6 853f cc4f 8a3f 1651 883f 0c32 903f
00000060: 740a 813f 68da b63f 1379 c23f 4357 ab3f
00000070: 5c59 863f bb41 7f3f d1b0 aa3f dbb8 823f
00000080: d825 913f a73f bf3f b3d2 843f d536 a73f
00000090: 2d4f 8c3f e7d9 b13f 7c2b bd3f c8d3 783f
000000a0: b35d 573f 9707 7e3f 976a 953f 93b9 8d3f
000000b0: 3956 803f 3681 823f c4b6 8d3f 90f9 713f
000000c0: a8b6 9a3f 5168 8f3f 1b90 8a3f 5bdb 883f
000000d0: ac5e 693f 8f2d 723f 7dbb 953f 546a 9b3f
000000e0: 05fc 823f 1443 953f 24e4 843f c3ba 913f
000000f0: 65d2 8f3f 735b 8b3f 7d98 9b3f 6462 a43f
0.9812143 0.9279526 1.0390582 1.0478338 0.80861187 1.4699452 1.1266276 1.0195667
0.83491194 1.0639331 0.8565226 0.9675473 1.1408441 1.1821123 0.8302054 1.1054175
1.1272788 1.0142312 1.1467204 1.1208838 1.0456192 1.0805602 1.0649745 1.1265273
1.0081315 1.4285402 1.5193199 1.3386005 1.049602 0.9970967 1.333521 1.0212663
1.1339674 1.49413 1.03768 1.3063608 1.0961663 1.3894624 1.4778895 0.9719815
0.8412735 0.9923033 1.1673154 1.1072258 1.0026313 1.0195682 1.1071401 0.9452143
1.2086992 1.120371 1.0825227 1.0691942 0.9116008 0.94600767 1.1697842 1.2141824
1.023316 1.1661096 1.0382123 1.138512 1.1236082 1.0887283 1.2155911 1.2842526

encoder.0.bn.bias f4 [64]
00000000: 93b3 873e db69 363e 50ac 583e 6987 4c3e
00000010: e23b a43e 3f2e eb3d bbdb 303e dd5b d1ba
00000020: 14ef 6e3e 5fd3 333b 0c61 103c cff8 733e
00000030: 4cc7 a63e eefd 2f3e 1222 593e 4f89 313e
00000040: efcc 883e 31de 9d3d fc52 543e 1bb7 fc3d
00000050: 55c4 1f3e 615f 383e f92b aa3e a650 023f
00000060: b60c 833e 64a1 493e 6247 0e3c f374 933d
00000070: 7269 a43e 16b1 c13e 434f 213e 29dd 793e
00000080: 707b 163e dd9a 1abd d04d 003e 0a8b 863e
00000090: 5158 983d 04c0 903b 28d6 8a3d 8c4a 5e3e
000000a0: eb41 f83d 18b4 873d 9920 ce3e af5b 0e3e
000000b0: d2aa 443e 1fc6 ea3d 0011 543d d080 4ebd
000000c0: b816 6e3d 3e15 853e fcda c03e 2e1d 093e
000000d0: 9877 293e b55d e33d b9ca 543e b041 df3d
000000e0: 47b9 523e 6da6 8e3e 8d8f 633e 89c5 a63e
000000f0: 78c7 9a3d 7b4a 963e f24c d83d fbf7 5f3e
0.26504192 0.17813818 0.21159482 0.1997353 0.32076937 0.1148343 0.1727132 -0.0015972812
0.23333389 0.002743922 0.0088122 0.23825382 0.32573926 0.1718671 0.21204403 0.17337535
0.26718852 0.07708395 0.20734781 0.12339612 0.15602238 0.18005134 0.33236673 0.5090431
0.25595635 0.19690472 0.008684011 0.07200041 0.32111698 0.37830418 0.15752892 0.24400772
0.14695525 -0.037745345 0.12529683 0.26277953 0.0743872 0.0044174213 0.06779128 0.21708125
0.12121948 0.06626147 0.40259245 0.13902162 0.19205788 0.1146357 0.051774025 -0.050415814
0.058127135 0.2599277 0.37667072 0.13390037 0.16549528 0.111018576 0.20780458 0.10901201
0.2057849 0.27861348 0.22222729 0.32572582 0.07557577 0.293537 0.10561551 0.21871941

encoder.0.bn.running_mean f4 [64]
00000000: 7b02 e93c 81a2 a3bb 5bcc e73c 7fdc ecbc
00000010: cd06 903c e2e9 cdbc 4bd4 c3bc 703e f43c
00000020: 2a03 8abc 13c2 1f3d 0391 47bc f496 a3bc
00000030: f608 f23c ecfa 6abc f992 4fbc 8f15 10bb
00000040: 197d 47bb 19f5 fa3c 9c91 92b9 0b0e fe3c
00000050: 609a 153d 6dbd 2bbd 5cb5 163d e885 59bb
00000060: 71fa 12bc c501 89bc 78b9 ccbb 8126 16bc
00000070: f26f c83c 371c f43c 9d71 e5bc a9e9 e53c
00000080: 514e f8bc 81f4 01bc 5cd6 c43c 08fa 87bc
00000090: df17 0d3d 38d6 eabb 9e21 4fbc 4889 02bd
000000a0: d729 e63b e620 84bb 4354 083d 9a19 0ebd
000000b0: edaf 2dbc 5595 04ba 7c18 0f3d f6ef 7d3b
000000c0: a85b 58bb e5c5 da3c 49e7 f13c 8040 7cbc
000000d0: 73bf d2bc 3304 253b 4b81 d83c dc0f 85bc
000000e0: ae8a babc b3a6 b8bb 39f8 5dbc cbe3 c13c
000000f0: edba f13c 3b94 073d 4a4d b1ba 7a6a 0bbc
0.028443566 -0.004993737 0.028295686 -0.028913734 0.017581368 -0.025135938 -0.02390494 0.029814929
-0.016847212 0.039003443 -0.01218057 -0.019969441 0.029545289 -0.014342051 -0.012669318 -0.0021985506
-0.0030439554 0.03063445 -0.00027955777 0.031012556 0.036524177 -0.041928697 0.03679405 -0.0033191387
-0.008970843 -0.016724477 -0.0062476955 -0.0091644535 0.024467442 0.02979861 -0.028008277 0.02806552
-0.030310782 -0.007931829 0.024027996 -0.016598716 0.034446593 -0.00716665 -0.012642292 -0.031869203
0.0070240307 -0.004032242 0.033283483 -0.034692384 -0.010601026 -0.00050576526 0.03493546 0.0038747764
-0.0033013616 0.026705692 0.02952923 -0.015396237 -0.025726056 0.0025179505 0.02642884 -0.016242914
-0.022771206 -0.0056351065 -0.01354795 0.02366819 0.029508078 0.033100348 -0.0013527062 -0.008509273

encoder.0.bn.running_var f4 [64]
00000000: e371 eb3a 7bcc 803a 5eca e13a cf26 1a3b
00000010: 624a 9c3a 9d4b 1e3b 9b3e eb3a dcbd cb3a
00000020: d2a0 153b 8514 2f3b 6ea3 903a 85cb b13a
00000030: 64bc fe3a d712 cc3a e7fa a23a 271f 303a
00000040: fa6e 3c3a 0a68 e83a b18a 0e3a ff22 ee3a
00000050: 6976 283b 1cdc 7d3b e937 213b 33e5 c03a
00000060: 1c80 7b3a 15de a53a 2cf4 573a f105 ad3a
00000070: 2b78 aa3a bf15 e93a 24d1 2d3b 2115 cd3a
00000080: 31f2 173b 4522 7f3a 0b06 ce3a c8f5 f03a
00000090: 163a 133b 124d 913a 56af b13a 88e3 293b
000000a0: 6858 3f3a 5140 593a f26f 0a3b ec8a 393b
000000b0: bb17 823a b09e 6e3a 63b3 0c3b 8590 433a
000000c0: e165 3c3a b8c6 b43a 96ad d23a 29c9 b33a
000000d0: d6da e73a e806 863a e982 cd3a 57a6 123b
000000e0: ce3b f83a 638d 013a 5abc d13a c927 af3a
000000f0: 09e5 df3a ee3c 023b 5c90 553a 209e c53a
0.0017963018 0.0009826565 0.0017226448 0.0023521667 0.0011924023 0.0024153956 0.0017947735 0.0015544253
0.0022831452 0.0026715111 0.0011035034 0.0013564682 0.0019434807 0.001556958 0.0012434394 0.0006718509
0.00071881677 0.0017731201 0.0005437537 0.0018168389 0.0025705344 0.0038735932 0.0024599975 0.0014716744
0.000959398 0.0012654687 0.00082379836 0.0013200623 0.0013005784 0.001778297 0.0026522363 0.0015646556
0.0023185129 0.00097325846 0.0015718354 0.0018383795 0.0022465042 0.0011085591 0.0013556283 0.0025922973
0.00072992453 0.0008287477 0.0021123854 0.0028311564 0.0009925285 0.0009102626 0.0021469228 0.0007460195
0.0007186812 0.0013792133 0.0016073461 0.0013716567 0.001768912 0.0010225447 0.0015679273 0.0022376978
0.0018938722 0.0004942028 0.0016001568 0.0013363297 0.0017081808 0.0019872743 0.00081468164 0.0015077032

encoder.1.weight f4 [64, 64]
00000000: 2293 4fbd 40ae c1bc abce 8c3d c139 a13d
00000010: 5435 cf3c d8f3 b0bd c155 e6bc 75d3 fdbd
00000020: 3223 283a ae90 a0bc ea57 c13d e30e b13c
00000030: 51d3 5a3a ae0f 0bbe 19fc 23be 6a75 9f3c
00000040: 9c8e c5bd 8cb0 303d aaf1 2e3d 5be5 163e
00000050: a9b5 933c 820e 15bd d522 d03d 33bb 3bbd
00000060: 5a2f 863d 50dc aabd 5ff5 463c 79a1 1fbb
00000070: 2522 8dbd b735 093c df1e 8b3d 455c c33b
00000080: f931 e43d 7781 803e 9a55 993c 6eff ed3d
00000090: 15ba 1fbe 8bc5 423b 4bbd f73d 474e 8d3d
000000a0: 6bee a43d 998c abbc 5a64 a13d 47ef b93d
000000b0: 7d33 8b3d ed71 6bbe 04d3 1dbd 7cfe 9b3d
000000c0: f847 74be 8ec3 523c 2cfa 89bd b75d e1be
000000d0: 63cf 163d 7700 08be 0f82 85be f588 bbbc
000000e0: 29f1 09be bb07 c7bd 9dfe 383e 4f7f db3d
000000f0: ba7e d03c 7afe fb3d cef8 45be 31fa 97bd
00000100: 1148 f1bd 1a40 c1bb 9ada 89bb 1489 bfbd
00000110: a360 25bd 53c6 ef3d 3801 ce3c 9fc8 40bd
00000120: 53dd 88bd f3ed 12be 9c9e 76bc 885a 2dbd
00000130: 31e2 153e 45de 43bc 925a 913d 7429 cf3c
00000140: ecda a7bd 0cbb 1dbc 451e 1f3e 8627 18bd
00000150: c55c ed3d c2f0 023d 1905 e63d d254 c13d
00000160: 4bd7 b03d 1360 f83c b5e4 babd 345c c73b
00000170: 9350 053c c9a5 84be 3e4e 8fbc 87dc 83be
00000180: 09a0 12be 9be5 45bd e04a 51bd 55c9 f5bd
00000190: f37f 7d3c 0bf2 dbbc 5cc1 08be 8ddd 853e
000001a0: 37f8 38be 3398 403e 5422 1dbe 7ca7 8cbe
000001b0: 74b2 583e ebac 9b3c f72a c93c adf3 e4bd
000001c0: 4c90 ec3c a0b0 9ebe 675f 16be 8c62 d33c
000001d0: 2aca 17bd 2c11 053e 09f7 06bd 47d6 373d
000001e0: 358f fc3d f10e b73b 2267 e53c 7868 97bd
000001f0: 3aed a0bc 85dd ef3c 5473 663d 3a25 f2bc
00000200: d2ef d3bd 09bc 2a3d 1c67 a03d 883a 823a
00000210: 5ffe 3e3d d0d3 88bd 3b36 ce3d 0046 963d
00000220: e3af 8e3d 4b35 af3d 8003 97bd 7815 dbbc
00000230: d217 183c 1f66 debd ee55 90bc 7a32 103e
00000240: b351 84bc 41f2 0cbd 6529 43bd de6a ef3c
00000250: 5dd7 92bc 6e6c b03d e6a9 1ebe 7737 2d3d
00000260: 754c 5bbd 1d36 7fbd d0ac 853e 2b29 42bd
00000270: 35f8 00bc 4d81 a0bd f8c8 e83d c681 85bc
00000280: 700e 8f3d eb23 d1bd 5815 a6bc 6180 18bd
00000290: c342 9f3d 8337 89be 55b0 64bd 6b8e 5fbd
000002a0: 6c8f 493d 2ff9 413e f7b5 2ebc 741a 623d
000002b0: dbe8 46be e3e1 123e e241 7a3d 0074 af3c
000002c0: 57ad 533d 52fe 0a3d 190f d53d d215 9b3d
000002d0: 3eb2 53bd b2d3 f8bc 86c3 82bd 2700 8dbd
000002e0: b813 19bd 3b67 6bbc ccf2 4e3d 1e93 003e
000002f0: 2e6a 923d 7346 63bc 997d c13d 9643 ed3a
00000300: f08b f1bb 15ff ff3d 0dff dc3d 571b 843d
00000310: 3e3e 7a3b a448 09bd 6ff3 01be 116f 5c3d
00000320: b504 22bc 08ae d7bb 2887 10be 1d57 5c3d
00000330: 425d 1a3d 76b5 463b 5e88 e83d 8b81 223e
00000340: 9f8a 44bc 870d e2bd bc34 8d3d d143 c8bd
00000350: f48f 97bd e30c 2738 d1fd 41bb 488f 483c
00000360: 1ad8 c8bd be41 b1bd cf4a f73c 823b 0bbd
00000370: 1dda 643e 382e 0bbc 3eff ba3d 9ee5 b6bd
00000380: f0c0 9ebd 1598 723c d50f 2fbe 6265 c13c
00000390: e917 a13d eeb8 0e3d a15f 943c 56e9 b4be
000003a0: 940c 413e db38 283d b51d f63c 8983 323e
000003b0: 0929 fe3d 71d7 893d b5d0 24be 9e1c 8f3d
000003c0: 8dc2 0abc 3e00 2b3d 06e9 183d a092 5d3b
000003d0: ab3c 063d ee14 9bbe 29b3 48be e5ab 3a3e
000003e0: 18a4 8e3d 478b 093e 79f1 d5bd f09e 5d3d
000003f0: 9cc2 043d 6527 12be b11b 91be f65e a5be
-0.050677426 -0.02364266 0.06875356 0.07872344 0.025293984 -0.086402595 -0.028117063 -0.12393848
0.0006413936 -0.019600239 0.094405964 0.021613544 0.00083475286 -0.135802 -0.16014136 0.019465167
-0.09646341 0.04313712 0.042710938 0.1473593 0.018030958 -0.03639079 0.10162894 -0.045832824
0.06552 -0.083428025 0.012143462 -0.002435772 -0.06891278 0.008374623 0.067929976 0.005961927
0.11142344 0.25098774 0.018717576 0.11620985 -0.15598328 0.0029719796 0.12096652 0.06899696
0.08053287 -0.020941066 0.07880469 0.09078842 0.0679693 -0.22992678 -0.03853132 0.076168984
-0.23855579 0.012864007 -0.067371696 -0.4401681 0.036818873 -0.13281427 -0.2607579 -0.022892455
-0.13470902 -0.09718271 0.18065877 0.107176416 0.025451053 0.12304397 -0.19333193 -0.07420767
-0.11781324 -0.005897534 -0.0042069675 -0.093523175 -0.040375363 0.11707749 0.025147066 -0.047066327
-0.06682839 -0.14348583 -0.015052464 -0.042322665 0.14637066 -0.011954849 0.07097353 0.025288321
-0.08196053 -0.009627115 0.1553889 -0.037147067 0.1158996 0.031967886 0.11231441 0.09440006
0.08634814 0.03031925 -0.09125654 0.0060839895 0.008136886 -0.25907734 -0.017493363 -0.25754187
-0.14318861 -0.048314672 -0.051096797 -0.12001292 0.0154724 -0.026848814 -0.13355011 0.26145592
-0.18063436 0.1880806 -0.15345126 -0.2747153 0.21161824 0.019003352 0.02455662 -0.1117929
0.0288774 -0.3099413 -0.1468483 0.025803827 -0.037058033 0.12994832 -0.032950435 0.044882085
0.12332002 0.005586498 0.02800328 -0.07392973 -0.019644368 0.029280433 0.05626233 -0.029558767
-0.103484765 0.04168323 0.078321666 0.0009935657 0.046629306 -0.06681025 0.100689374 0.0733757
0.069671415 0.08555087 -0.073737144 -0.026743636 0.009283023 -0.10859322 -0.0176191 0.14081755
-0.016152238 -0.03441072 -0.0476469 0.029225763 -0.017924959 0.08614431 -0.15494499 0.042289224
-0.053539712 -0.062307466 0.26108408 -0.047402542 -0.007871677 -0.07837162 0.11366457 -0.016297232
0.069851756 -0.10211929 -0.02027385 -0.037231807 0.07776406 -0.26800165 -0.055832226 -0.05457918
0.049209043 0.18942712 -0.010663501 0.05520101 -0.19424765 0.14343981 0.061097987 0.021417618
0.05167898 0.033933945 0.1040327 0.07572521 -0.051683657 -0.030374382 -0.063849494 -0.06884795
-0.03737232 -0.014367874 0.050524518 0.12556121 0.071491584 -0.013871777 0.09447784 0.0018101807
-0.007371418 0.12499825 0.107908346 0.06450527 0.0038184072 -0.03351654 -0.12690519 0.05381686
-0.009888818 -0.0065820254 -0.14114058 0.053794015 0.037686594 0.0030320561 0.11354135 0.15869729
-0.0119959405 -0.110377364 0.06894824 -0.0977856 -0.07400504 3.9827904e-05 -0.002960075 0.012241192
-0.09806843 -0.086551175 0.030187039 -0.033992298 0.22348829 -0.008494906 0.09130715 -0.08930515
-0.07751644 0.014806767 -0.17095883 0.023607913 0.078658886 0.03484433 0.018112006 -0.3533427
0.18852454 0.041069847 0.030043462 0.17432989 0.124101706 0.06730545 -0.1609524 0.0698788
-0.008469236 0.041748278 0.037331603 0.003380932 0.0327727 -0.30289406 -0.19599594 0.18229635
0.06964892 0.13432036 -0.10446448 0.054106653 0.032412156 -0.1427284 -0.2834144 -0.32299012

encoder.1.bn.weight f4 [64]
00000000: 4a48 0440 a705 f83f a7b0 c83f a0ec 0340
00000010: 045c f33f 5c23 0140 5492 8b3f 0f74 8c3f
00000020: b5a3 ef3f f9bb fe3f c24f ed3f 6ed2 f63f
00000030: 41d9 e73f 66f6 e93f 4a8e fd3f 36b1 d53f
00000040: 25f7 0040 34cd f03f a2b7 ed3f 3cb3 0240
00000050: ceda c93f a8dc 1940 fd18 d43f e3ce 0740
00000060: 795d fd3f 8490 0240 49f8 0940 010c 0340
00000070: 24bf f93f 3ebd f73f 55b3 f03f 918a 0440
00000080: 9451 0240 a79d ea3f ea7c ff3f e871 f73f
00000090: af71 fe3f cd00 f73f b6a2 fd3f def9 e53f
000000a0: 2632 fb3f b668 b33f 9fca fc3f 0f7d c63f
000000b0: 5405 ff3f 11a9 fc3f 3b54 f13f 913e f03f
000000c0: f4b0 ed3f 1067 0140 87de f93f 407c 903f
000000d0: a5d0 f33f e6ea 0040 ffc1 f53f 76cc d03f
000000e0: c1e2 8c3f d0b1 ea3f 3773 ef3f 1fe0 c53f
000000f0: 46c0 f43f 6ceb f93f 8b91 db3f b355 0140
2.0669122 1.9376725 1.567891 2.0613174 1.9012456 2.0177832 1.0904031 1.0972918
1.8721834 1.9901115 1.8539965 1.9282968 1.8113176 1.827832 1.9809048 1.6694705
2.0150845 1.8812623 1.8571665 2.0421896 1.5769899 2.4040928 1.6570126 2.1220024
1.979415 2.0400705 2.1557791 2.0476077 1.9511456 1.9354627 1.8804728 2.0709574
2.0362291 1.8329362 1.9959996 1.9331636 1.9878443 1.9297119 1.981528 1.7966878
1.9624679 1.401633 1.9749335 1.5506915 1.9923501 1.9739095 1.885383 1.8769094
1.8569627 2.0219154 1.9521035 1.1287918 1.9048048 2.014337 1.9199828 1.6312397
1.10067 1.8335514 1.8707036 1.5459021 1.9121177 1.952497 1.7153791 2.0208557

encoder.1.bn.bias f4 [64]
00000000: 76b0 6a3f 890c 3c3f 3c95 883e 387a 753f
00000010: 89b9 443f e869 9d3e 737d 0d3e c55d 033e
00000020: 208e 863e 2d91 f33e 3660 543f 794f 5a3f
00000030: f111 393f 56a2 443f 9627 633f 51d2 b53e
00000040: e947 803f 4ea3 3e3f 0c07 2f3f 80f1 5c3f
00000050: b541 5b3e 45bb 093f d80a 233e 2f5f 3b3f
00000060: ee50 163f 7974 853f 65e0 633f ef91 4d3f
00000070: b53c 553f a60b 2b3f 2124 5f3f fa05 443f
00000080: 0290 483f d653 ad3e ae5a 533f 5703 6d3f
00000090: dc85 513f 4a0d 413f 9009 763f ec1c 023f
000000a0: 1f1d 7e3f 3011 873e 744c 6b3f 29f7 113e
000000b0: b62f 783f 6f40 793f c2c2 343f d9a4 003f
000000c0: 168e 3c3f a655 493f 7210 533f 46fd 3c3e
000000d0: 902d 3e3f cef0 5d3f f7d4 5b3f 94eb 333d
000000e0: 4ca5 333e 6347 043f 5105 003f ad0c 463e
000000f0: b47b 363f ca90 163f c98b ee3e f0d0 343f
0.9167551 0.7345663 0.26676357 0.95889616 0.76845604 0.30744863 0.13817386 0.12828739
0.26280308 0.47571698 0.82959306 0.85277516 0.72293 0.76810205 0.8873228 0.3551202
1.0021945 0.74467933 0.6837013 0.86306 0.21411784 0.53801376 0.15922105 0.73192114
0.5871724 1.042617 0.89014274 0.803008 0.83295757 0.6681465 0.87164503 0.7657162
0.7834474 0.33853024 0.8256024 0.9258322 0.8184488 0.754109 0.9610834 0.5082538
0.99263185 0.263803 0.91913533 0.1425444 0.969478 0.9736394 0.70609677 0.5025154
0.73654306 0.78646314 0.8244697 0.18455991 0.7428827 0.86695564 0.85871834 0.043925837
0.17543525 0.5167143 0.5000811 0.19340773 0.71282506 0.5881468 0.46591023 0.70631313

encoder.1.bn.running_mean f4 [64]
00000000: c7f2 223e 22ee b33d 0733 c0bc 6355 b13d
00000010: 9667 973e 4306 3dbd 4485 06bf d6e4 6cbf
00000020: 94e8 7cbc 39d9 1e3e 6de0 a73e c5fd a13e
00000030: e6c2 1c3e 1ae6 743e 8d3c b03e 625f a43c
00000040: f7b4 563e 68bf b03e aaca 983e 1726 ab3e
00000050: decf 1abd da32 0cbd 26bb acbd 2c9f b93d
00000060: c330 5f3e c141 723e 76b1 823e f4de 443e
00000070: 1229 863e b3e8 8b3e 09f6 103e 9767 813e
00000080: 803f 993e 7ef4 ffbc 1f3d 5f3e b090 343e
00000090: 9842 3d3e 85e6 773e c6fc 8f3e d2d8 563e
000000a0: 2614 ad3e cb90 82bd 900c 5a3e 473f 95bd
000000b0: 330a 833e 0489 113e 9a7e 9f3e de2a 1e3e
000000c0: 5a1e e53d e8ee 543e a0af 993e a8fc 4bbe
000000d0: cd0f 3f3e 08f8 9e3e 348f 473e 4315 79bd
000000e0: e8d7 bebe 8b38 303e 5ec3 4d3e 157a adbc
000000f0: d5d5 8d3e e93a 9d3e f707 c63d ef5c 273e
0.15912925 0.087856546 -0.023461832 0.08658864 0.29571217 -0.04614855 -0.525471 -0.92536676
-0.01543631 0.15512551 0.3278841 0.31638923 0.15308723 0.23915902 0.34421197 0.020065013
0.2096747 0.3452103 0.2984212 0.33427498 -0.037795894 -0.034228183 -0.08434133 0.09063563
0.21795945 0.23657896 0.25526017 0.19225675 0.2620321 0.27325973 0.14156355 0.25274345
0.2993126 -0.031244513 0.2180066 0.17633319 0.18482435 0.2420903 0.28122538 0.20981148
0.33804435 -0.06375273 0.21293855 -0.0728746 0.2559372 0.14212424 0.31151277 0.1544604
0.1118743 0.2079426 0.30016804 -0.199206 0.18658371 0.31048608 0.19488221 -0.060811292
-0.37274098 0.1720907 0.20094058 -0.021176377 0.27702203 0.30709007 0.09669488 0.16344045

encoder.1.bn.running_var f4 [64]
00000000: 2195 493e 7f67 0f3e 76a8 1a3e c349 0e3e
00000010: 6ec2 683e 4083 903e 59c9 d53e 98c5 9a3f
00000020: 4f1d 563e d183 3f3e 4b42 a13e ec01 913e
00000030: 23a4 113e be42 633e 5461 ab3e aa6e 6c3e
00000040: aac2 523e 0ff0 8b3e 7d65 9e3e 45ea 953e
00000050: 3d82 303e 520e 293e 782e 5d3e 18ca 803e
00000060: 1404 623e 5142 6b3e 9d3e 643e da66 5b3e
00000070: 1f5a 893e 43b4 823e 7a08 343e 0e05 683e
00000080: 297a 8c3e 2043 383e 5c79 8c3e ffdc 573e
00000090: 4e3f 683e ac61 8b3e 2e8b a63e 10a4 9a3e
000000a0: e721 973e 9093 293e be69 5a3e 73a6 0c3e
000000b0: c54e b33e 9ab6 343e 4f56 9d3e c9c9 373e
000000c0: e1e5 273e 5ce5 813e 14d5 a43e f3c0 3d3e
000000d0: 6b25 4e3e 53a6 9b3e 39b3 3b3e 2053 4f3e
000000e0: 1947 933e f8ce 2f3e 23e0 6a3e ac08 0c3e
000000f0: dbeb 843e e2ae a03e 94b8 1f3e 4303 273e
0.19685794 0.14004324 0.15103325 0.13895325 0.22730419 0.28225136 0.4175518 1.2091551
0.20909618 0.18702628 0.3149589 0.2832178 0.1422277 0.22193429 0.33472693 0.2308909
0.20582071 0.27331588 0.30936804 0.29280296 0.17237182 0.16509369 0.21599758 0.25154185
0.22071868 0.22974516 0.2228951 0.21425954 0.2682657 0.25528154 0.17581359 0.22658178
0.2743695 0.17994356 0.2743634 0.21080397 0.22680399 0.27222955 0.3252806 0.30203295
0.29518053 0.16560197 0.213294 0.1373537 0.35021034 0.17647782 0.3072991 0.17948069
0.16396286 0.253703 0.32193816 0.18530636 0.20131461 0.30400333 0.18330087 0.20246553
0.2876518 0.17168796 0.22937064 0.13675183 0.25961193 0.31383425 0.15597755 0.16309838

encoder.2.weight f4 [64, 64]
00000000: debc 963e b888 a7bc 9b9a 59be ec1c c4bd
00000010: 9ef5 533c 795e 7fbe c507 213c 1e4d 823d
00000020: 46da c0bc 9b9a e2bc a9fc 7c3c a703 0d3e
00000030: 8a38 083e 9d5d bf3d bae5 fdbd d45b 66bd
00000040: f1ca acbd d9a3 a73c 6123 9abd f341 73be
00000050: 6f6c e43d 99c6 40be a3ad 37bd 872f 44bd
00000060: 2b5b 263c d554 debd 1967 8b3d d368 f43d
00000070: 1558 773e 9500 4cbd ba24 47bd 6460 9d3d
00000080: 5cfc f3bd 9885 ddbd 73a5 4abd 9c7a b4bd
00000090: ad3f 86be c578 273e 3ed2 373e 48c6 14be
000000a0: 6f2e 0a3d d6ae e83c 64aa e13c 8f62 02be
000000b0: 236d 34be 775c 35be 28b2 b13d 8955 bb3d
000000c0: e091 4a3d b2c3 7b3e 9929 ac3d 3734 c43e
000000d0: 622e 78bd fb5d f63b f954 a53c 74c1 023e
000000e0: 6221 a6bd 4fb0 733d a374 243e 70f7 97bd
000000f0: d6ee 8e3d e98b 423e ebe2 993d 0928 09bd
00000100: 7f13 123e 289a 013e 446c 8a3e 8337 04be
00000110: 0bb7 213d fb24 50bd 91c5 713b e672 6bbe
00000120: 33a6 c63d 4ff1 683d 01f9 3d3d 66a5 adbd
00000130: c567 38bd 14f7 263d 1520 b0bb 4107 023d
00000140: 17e7 ecbd 1871 1d3e 3117 b23d acf3 a4bd
00000150: b777 6d3d 2f24 023d 6205 69bc 214d 233d
00000160: df42 be3d af30 91bb b516 343e 2d04 b2bd
00000170: e5a7 d4bd b74b 83bd 6706 2bbd f379 16be
00000180: 54c0 e1bd 6070 40bd 9510 1e3e f3cb e83d
00000190: fe77 963d 29df f8bd 514e 70bd 8490 553e
000001a0: 54b0 91bd c37d abbb a10e 1c3e ece0 dd3c
000001b0: a4e5 87bd 956a 07be 385f 1cbe 4c2d 57bd
000001c0: 9978 553d bc63 7a3e 73e0 febd 0193 693d
000001d0: 2253 febc e387 f3bd 980c 99bd a7a1 01be
000001e0: 5ca5 ccbc e2f8 223e 6c83 363d 260d 473c
000001f0: e967 1bbe fd02 3c3d cd8f b23c 36a0 093e
00000200: e224 c6bd d8e1 13be dd51 ab3d 047f 1e3e
00000210: 5805 173c 652f 703d e57e 313b 08ba 1f3c
00000220: bd88 1b3d b123 113d 8164 dabc c762 063e
00000230: eab8 ff3d 5e40 7abd 2858 47be f397 a0bd
00000240: 5a98 74bc 1f2d 20bd 88bb f13d e32f 8e3d
00000250: 766f 253e 7693 92bc 5189 36bc aa18 fc3c
00000260: d1fe 4abe a7c6 ad3d 822a dcbc ed67 c93d
00000270: 1b6f b6bd 9df2 91bc d339 d7bd a5ee 18bd
00000280: ab3d 63bc 8c84 003e ecc0 c5bb c78b f3bc
00000290: e538 39bd be0a a73d 0a10 853d 886c da3d
000002a0: 870a 88bd 4374 33bd d2a4 a5bd 8c0a 21bd
000002b0: b26e a43d dea8 513d f522 413c b723 953d
000002c0: 4f8d 16bd a499 a83d 65b1 8ebc ca29 e0bd
000002d0: 1ce6 223e 764c 3fbd da22 63bd b09a bf3c
000002e0: da04 87bd b720 88bd 2272 9e3c 3905 9b3c
000002f0: 746d 943d 7c01 0d3d 622b 85bd 5242 3cbe
00000300: c991 863c 3fc2 62bd f841 eabd a30a ae3e
00000310: 422b c3bd 3f25 963d df6d 71bc 83ce 133e
00000320: 17b5 183e 5842 9dbd 31c8 34bd 2cca 71bd
00000330: b9b6 78be b776 f73d 5c70 073e a7a0 90bd
00000340: 77ec 5b3d 7c1e 2c3e 9d44 ffbc 2e27 84bd
00000350: 45a9 2ebe 3300 9f3d b09b 363e 8a1c 393c
00000360: ae5a 713e 068b 1bbd c557 5b3c 241c dabd
00000370: 30e1 4d3e 87cb c03d f680 173e 9e3d ddbd
00000380: 47b6 083e 9a11 f7bc 759c 1fbe 2633 6ebe
00000390: 32cf cb3b f143 2a3e fd5e 9e3c 369c 27be
000003a0: e19f 553d af81 123d 1824 fdbd ddc3 fd3a
000003b0: c0af bbbd f69a 963b 283a 2b3e b98c f4bd
000003c0: 3eae 28be b5ac eabc 2113 393e 09b8 033e
000003d0: c139 b73d bc42 db3a f2b6 413d b3aa 0cbe
000003e0: 86eb ce3b 84d0 ccbd 1a92 23bc 445b c7bd
000003f0: 1ca7 d63c 8f43 773e 439a 0dbc 8ca5 07bb
0.2944097 -0.020450935 -0.21250384 -0.09575829 0.012936978 -0.24938382 0.009828513 0.06362365
-0.02354158 -0.027661612 0.015441098 0.13770925 0.13302818 0.09344027 -0.123973325 -0.056239918
-0.084371455 0.02046387 -0.07526279 -0.23755626 0.111534946 -0.18825759 -0.044843327 -0.047896888
0.010153572 -0.10856024 0.06806774 0.11934056 0.24154694 -0.049805243 -0.04861901 0.07684401
-0.11913368 -0.108164966 -0.04947419 -0.088124484 -0.26220456 0.16354664 0.17951295 -0.14528763
0.03373569 0.02840368 0.027547069 -0.1273291 -0.17619757 -0.17711054 0.08676559 0.09147174
0.049455523 0.2458637 0.084063716 0.38321087 -0.06059111 0.0075185276 0.02018212 0.12769109
-0.08111836 0.059494313 0.16060118 -0.07420242 0.06979148 0.18998684 0.07513984 -0.033485446
0.1426525 0.12656462 0.27035725 -0.12911801 0.039481204 -0.050816517 0.003689144 -0.22993049
0.09699669 0.056870755 0.046380047 -0.08478813 -0.045020837 0.040762976 -0.005374918 0.0317452
-0.115675144 0.15375173 0.0869583 -0.08054289 0.057975497 0.03177279 -0.014222475 0.039868478
0.092900984 -0.0044308524 0.17586787 -0.08692203 -0.10383586 -0.06410926 -0.041754153 -0.14694957
-0.11023012 -0.04698217 0.15436013 0.11367025 0.073471054 -0.121519394 -0.05866844 0.2085591
-0.0711371 -0.005233498 0.15239955 0.02708479 -0.06635597 -0.13224252 -0.15270698 -0.052533433
0.052116964 0.24452108 -0.12445154 0.05702496 -0.0310455 -0.11891153 -0.07473105 -0.12659322
-0.024981193 0.15915254 0.044558927 0.012149131 -0.15176357 0.045901287 0.021797085 0.13440022
-0.096750036 -0.14441621 0.083652236 0.1547814 0.009217583 0.05863895 0.0027083692 0.009748943
0.0379722 0.03543443 -0.026659252 0.13123618 0.124864414 -0.06109654 -0.19467223 -0.07841482
-0.014928902 -0.03910553 0.11803347 0.069427274 0.161558 -0.01789258 -0.011141137 0.03077348
-0.19823767 0.084851556 -0.026875738 0.098342754 -0.089079104 -0.017815882 -0.10509076 -0.037336964
-0.013869683 0.12550563 -0.006034961 -0.029729737 -0.045220274 0.08156346 0.064972 0.10665232
-0.06642633 -0.043812048 -0.080880776 -0.0393167 0.08028926 0.051186435 0.01178812 0.07282203
-0.036755856 0.082324296 -0.017418573 -0.10945471 0.15908092 -0.04670378 -0.05545316 0.02338919
-0.06592722 -0.06646865 0.019341532 0.018923389 0.07247439 0.034425244 -0.06502415 -0.18384674
0.016426938 -0.05536103 -0.11438364 0.3399249 -0.09529735 0.07331323 -0.014735668 0.14434247
0.1491283 -0.0767867 -0.04413623 -0.059030697 -0.24288453 0.1208319 0.13226455 -0.07061892
0.053692307 0.16808504 -0.031160647 -0.064527854 -0.17056759 0.0776371 0.17832828 0.011298308
0.23569748 -0.03797438 0.013387625 -0.10649899 0.20105433 0.0941382 0.14795288 -0.10802768
0.13350783 -0.03015976 -0.15587027 -0.23261699 0.006219768 0.1662748 0.019332403 -0.16368183
0.052154426 0.035768207 -0.123604 0.001936074 -0.09164381 0.0045961095 0.16721404 -0.11940903
-0.16472718 -0.028646806 0.18073703 0.12863173 0.089465626 0.0016728262 0.04729361 -0.13736992
0.0063146977 -0.10000709 -0.009983564 -0.097342044 0.02620273 0.24146865 -0.008642736 -0.002069804

encoder.2.bn.weight f4 [64]
00000000: 75d8 ab3f 2ccd b93f d780 a03f b70b ab3f
00000010: 52c0 b43f d51a b13f eb12 aa3f 5dce b63f
00000020: ae01 983f 1ffb 983f dac2 b33f e262 b63f
00000030: 16f1 9c3f fd65 973f 8f8a 793f 0b58 b13f
00000040: 895d a33f 6f2f ac3f b23c af3f 4dc3 a03f
00000050: a168 823f 6d54 813f 27e6 ae3f 2039 b03f
00000060: 3ccc b03f abc0 ac3f 36b6 ab3f 732a 8c3f
00000070: f11f a33f 0844 b73f 1d44 b83f b968 b33f
00000080: 1d9c a43f 8b71 983f 66c8 a13f 8265 c63f
00000090: e2b2 b73f 7b4f b83f 5f5c b53f 6b61 bb3f
000000a0: fd81 a23f fe4f be3f 2b6b 8a3f d2a9 863f
000000b0: eae6 b53f 1782 893f cc96 8e3f 5c42 a13f
000000c0: 0fc4 ae3f 951c b83f 2fed 843f 7208 af3f
000000d0: 3045 a53f 372f 8a3f 5703 b53f 9bf4 c43f
000000e0: fa74 953f 033d 813f 0dfb ab3f 1e88 8b3f
000000f0: b042 a53f f5cb a93f a4a5 a53f fb02 9e3f
1.3425432 1.4515738 1.2539319 1.336295 1.4121192 1.3836313 1.3287023 1.4281727
1.1875513 1.1951636 1.4043839 1.4248927 1.2261074 1.1827999 0.9747705 1.3854994
1.276292 1.3451976 1.3690398 1.2559601 1.018818 1.010389 1.3663987 1.3767433
1.3812327 1.3496298 1.3414981 1.0950454 1.2744123 1.4317636 1.4395787 1.4016334
1.2860142 1.190965 1.2639282 1.5499728 1.4351466 1.4399256 1.4168814 1.4639105
1.2695919 1.4868162 1.0813955 1.0520575 1.4211094 1.0742825 1.113977 1.2598376
1.3653582 1.4383723 1.0384883 1.3674452 1.2911739 1.0795659 1.4141644 1.5387148
1.1676323 1.0096744 1.343599 1.0900915 1.2910976 1.3265368 1.2941175 1.234466

encoder.2.bn.bias f4 [64]
00000000: f292 8d3e 4fbd e43e 50c5 923e 58b1 913d
00000010: e356 d43e 3804 8a3d 7fe8 0d3e 880b e93e
00000020: ef90 603e 1b34 9d3d bb2b a03e 46db 853e
00000030: 0dec 813e 9f71 6e3e 37d5 893e 7347 d53e
00000040: 4168 903e b76a 48bd 9ded cd3e 5eb7 4f3e
00000050: 9076 563d e13f 793e 3b87 a93e bb0a d03e
00000060: 354f 7c3e 0f7d 663e 934d 5b3e 4fde 443e
00000070: 6b13 303e 4a91 cd3e 2480 233e 5127 853e
00000080: d85d 8d3e 205b 4a3e 4616 813e 0e4e 933e
00000090: b485 bc3e 1eda 9d3e a1c9 0f3f e09a 283e
000000a0: e363 ae3e 8cc5 e53e c052 f83d 061e 283e
000000b0: e33b 433e 9d20 183e c471 8b3e 3ba0 7f3e
000000c0: 7969 943e 7026 fc3e c30a 3c3e 9fbb cd3e
000000d0: 97fc bc3e 6734 2a3e bba1 af3e 035e 783e
000000e0: ba40 773e cbe5 583e 49a7 883e 9e2b 173e
000000f0: 40ad 213e 437d 4a3e 0335 543e 22f8 b23d
0.27651173 0.4467568 0.28666162 0.07113904 0.4147254 0.06739086 0.13858221 0.4551661
0.21930288 0.07675954 0.31283364 0.26143855 0.25375405 0.2328553 0.26920483 0.41656074
0.2820454 -0.048929896 0.40220347 0.20284793 0.052359164 0.24340774 0.33110985 0.40633187
0.2463959 0.22508644 0.21416311 0.19225429 0.17194907 0.4014991 0.1596685 0.2600656
0.2761066 0.19761324 0.25212306 0.28770489 0.36820757 0.30830473 0.56167036 0.1646533
0.34060583 0.4487728 0.12125158 0.16417703 0.19065814 0.14856191 0.27235234 0.24963467
0.2898672 0.49248075 0.1836348 0.40182206 0.3691146 0.16621552 0.34303078 0.24254613
0.24145785 0.21181409 0.26690128 0.14762732 0.15788746 0.19774346 0.20723347 0.08738734

encoder.2.bn.running_mean f4 [64]
00000000: 915b 863e 63b6 353f a765 b93f cf80 0cbe
00000010: 2df7 773f bd44 1c3e 664e ab3f c2ac 883f
00000020: a84b 963e d765 d6be 71c5 d93e 7394 a33f
00000030: 059e 8b3f 6925 bb3d 2e29 d73e e1fa 613f
00000040: db1e 003f f457 dbbe bb26 733f a4c2 213f
00000050: 2d2d f0be a036 3ebf 816b a23f 96c9 953f
00000060: 974c d23e dd2c bf3f 4ccc 853e 7af9 7fbf
00000070: ecff 5b3f accc f93e e1c9 f93d 9a05 a03e
00000080: 0d13 203e 97bc 273e e74a ff3e dff1 543e
00000090: 3fd0 d13e 9235 563e a2af 233f d477 7d3d
000000a0: 9628 0a3f 241e 4b3f 0bcf 73bf 80a6 0f3e
000000b0: ae5c c73d 624d 1e3e 74ba e23e b60c a53e
000000c0: 4f7e 9b3e f333 843f a1eb 2cbf c849 ac3f
000000d0: 2b98 903f fb85 53bf 5ef1 b03f 5723 4c3e
000000e0: cd14 ca3e 908a 42bf 44c8 6b3f 4778 91bf
000000f0: 16bc 963f d9ed ae3f ea4c 163f 9b27 c83f
0.26241735 0.70981425 1.4484147 -0.13721012 0.96861535 0.15260597 1.33833 1.0677722
0.29354596 -0.41874573 0.42533448 1.2779678 1.0907599 0.09137995 0.42023605 0.88273436
0.5004708 -0.4284054 0.94980973 0.63187623 -0.46909466 -0.743021 1.2689058 1.1702144
0.41074058 1.4935566 0.2613243 -0.99990046 0.8593738 0.48788965 0.121967085 0.31254274
0.15632267 0.16380535 0.49861833 0.20795391 0.40979192 0.20918873 0.6393987 0.061881855
0.5396818 0.79342866 -0.952378 0.14028358 0.09734474 0.15459207 0.44282877 0.3223626
0.30369803 1.0328354 -0.6754704 1.3460016 1.1296438 -0.8262631 1.382366 0.19935356
0.39468995 -0.7599268 0.92102456 -1.1364831 1.1776149 1.3666335 0.5871111 1.5637087

encoder.2.bn.running_var f4 [64]
00000000: d55a 1f40 04a2 2c40 5500 c340 e10d c73f
00000010: da87 3a40 ea8c aa3f 4eae 8840 3865 8040
00000020: d3b5 0140 9c37 8a3f 65e7 fd3f d646 8c40
00000030: 319f 4e40 4c78 853f 0cc2 f23f 03b3 5440
00000040: d6af 0c40 9389 a53f 0312 8840 d0b0 0740
00000050: 0f62 1840 dc89 f23f 9a8a 8740 afdc 8840
00000060: e05d 1740 ef1e 9e40 85aa 0040 255d 1a40
00000070: 913f 1740 3775 1c40 2e36 0840 1b7e 3340
00000080: 1b39 f43f ac53 b63f dd13 0540 edb3 1a40
00000090: 5396 2140 9333 1540 5db8 fd3f de07 f93f
000000a0: 46ff 1740 4c13 6240 bd8a 4040 3b97 8e3f
000000b0: fd92 ab3f 9eb1 f53f 1651 ba3f 1b35 c13f
000000c0: 8426 2c40 6353 8840 5d14 d23f fe41 9c40
000000d0: 039f 8140 9ec1 0540 b038 9f40 e02b e83f
000000e0: 5e1c 3040 c52a 0f40 2ac3 3340 ee7e 1a40
000000f0: 3b8d 8540 2bee 9040 b73e 1940 de35 c540
2.489919 2.6973886 6.0937905 1.555111 2.9145417 1.3324254 4.2712774 4.012356
2.0267227 1.0798221 1.9836241 4.383647 3.2284663 1.0427337 1.8965468 3.323426
2.1982322 1.2932609 4.2521987 2.1201668 2.380985 1.8948321 4.235669 4.276939
2.3651047 4.941276 2.0104077 2.411935 2.3632548 2.4446542 2.1283069 2.8045719
1.9079927 1.4244285 2.0793374 2.4172318 2.5248 2.3312728 1.9821888 1.9455526
2.3749557 3.5324278 3.008468 1.1139902 1.3404232 1.919483 1.4555995 1.5094332
2.6898508 4.260179 1.6412464 4.8830557 4.0506606 2.0899425 4.97567 1.813839
2.7517314 2.2369854 2.8087869 2.4139972 4.17349 4.529073 2.3944528 6.1628256

encoder.3.weight f4 [64, 64]
00000000: 5d06 223b dce6 563e 1c47 7e3e 0bdc ffbb
00000010: 449a 64bd a50a d53c 039c 3a3d ec9b a3be
00000020: 6f8c 3a3e f85a d6bb 84d9 b9bd 3cb7 83bd
00000030: 5373 41be b7dd 4b3e 9113 563d e817 6ebd
00000040: 4f85 0abd a3d4 da3c 6f93 3abd bf8e d13d
00000050: 8357 e5bd c7a6 9abd 9f5b adbd f3ce 703d
00000060: 2669 283c 4f6a da3d ae9a 11be 7017 7b3d
00000070: f8ac fcbd 3c4d 43ba 8993 fe3d bd91 cabd
00000080: 8218 0c3e 676d bfbd 303e e1bc 917b 04be
00000090: 36f4 db3d d6b6 69be 2ec6 69bd e2fd e23d
000000a0: 2917 ba3c 4332 803d 1b72 c6bd 3c5b 26be
000000b0: e59e 01be ecc2 24be 28a2 76bd 43ae c43d
000000c0: 504c 633d 8bff 6c39 3e94 d1bd 137b 453d
000000d0: c1fd 9d3c b4e7 2dbc 678b 60bd 4716 61bd
000000e0: 4544 bc3d 0096 923d 91c5 f5bc e436 0ebe
000000f0: 4f73 1abc 413f f83d 2d62 21be bfc1 8bbd
00000100: 08cc 32bd 3d47 f4bd dd8e b4bc 9811 9bbd
00000110: aff1 463e aee5 dd3c 281e 25bc 45f4 a9bd
00000120: 0cac 063e 1e9c a2bd 2127 163e 9faf 9cbd
00000130: 14da ca3d a05a e83c 377f 7cbd de9d 7e3d
00000140: 5b19 973d d614 303e 112d 893d 500a b4bc
00000150: e782 b9bc 9b9f 92bd 65be 0e3d ca98 dabd
00000160: f0e5 bbbd f3e0 cb3d 87d6 36be 83f4 f0bd
00000170: 6d2e 6e3d 371d 5f3d ec95 803b e32d 7ebd
00000180: 0a4a 1cbd 8e12 f5bd 4811 103c 144d dd3c
00000190: 5f31 4a3d 8390 91bd eb7c 5c3a 4e2e 183e
000001a0: a9e2 7fbd d483 aabc 7162 44bd 7a0a 3fbe
000001b0: 84b6 5b3d e63f 1b3d f78b 3a3e 3239 ef3c
000001c0: 55d5 a2bc 04d8 30bd c9ec 923c 5d3f e43c
000001d0: c445 acbd 8e1a 7abd b6fe b2bd 368e 15bd
000001e0: d5d2 343e cbf1 3b3d 38e0 3ebd 8dc6 f23d
000001f0: ac2a 363d c417 693c e91e 8b3d bb0f 7dbc
00000200: 21ba b6bd b733 b7bd 6a7c 463e 464d ec3d
00000210: 928d 59be 43c6 a23d f75a 6fbb 2b18 55bc
00000220: d812 a63d 26ba fe3d e237 f43d bffe 2dbe
00000230: 853d 333e 3cac 2abe 0423 0d3d 936e 0cbd
00000240: caf4 9abd b57c 7cbd f4aa 08bd 37bc db3d
00000250: 12c2 c83c 9dc5 ac3d f6c5 70bd bfac 2d3e
00000260: 1127 343e dd93 75ba bf19 afbd 9585 d3bd
00000270: 119f 723e f9be d737 a2cf 4e3e 9af6 16be
00000280: f1e5 23be 0a13 5abd a6ad a33e 2f28 9a3c
00000290: 1ed9 293e 1a23 acbb 2f92 21be 04a3 363d
000002a0: b84f f43d 9d2a 3f3e fc48 b1bd 3a05 993d
000002b0: 2b72 ef3c 6671 0f3e dffb 3ebd c33a fabd
000002c0: 7a9e 503d e11f bebd c389 453d 7b4a 01be
000002d0: fc6d 303e 8d2b debd 5e6c b03c 68f7 34be
000002e0: 4400 c23b dac7 9b3c 7259 053e 8d2b f53d
000002f0: 0701 ebbd 5f8c a2be c4a5 173e 8bbc 9c3c
00000300: 7afa 643d 68ae ccbd 8920 2cbd 1e92 98bd
00000310: 036a 3a3e c28a 9f3a 252d cabd 453b 423d
00000320: 2113 92be db16 bf3e a097 66bb 048d 64bd
00000330: f643 d53d 0f91 bcbd 9cbb cbbc b7a6 3e3e
00000340: bbea 5cbe 1db1 183d f2f3 0cbe 8370 95bd
00000350: 1c84 52bd 6a8b 623c cd8c 1dbe 7519 3bbe
00000360: 1c49 cb3e 16ad 623e 9072 9a3e 39b4 f1bd
00000370: 5b8c 923e 5ee2 1ebe 87bd c13e e933 d83d
00000380: b4db 6fbd 9156 5b3d c52d 20be 1807 58bd
00000390: 1393 64bd 8e33 e9bd fc34 1fbc bada 86bd
000003a0: afd1 923d 9ba2 c03d e59d 35be ee3e 48be
000003b0: e5c8 c8bc 052d 9dbb 5e7d 97bc fd21 84bd
000003c0: 110d 3a3e acde 16be 0ef9 44be c048 193e
000003d0: c603 5cbd 2440 9abd 4622 45be d3b1 9c3d
000003e0: 8f7a b23d 3956 193e f0ba 563c 85d1 2ebe
000003f0: 49b8 053d 311e 22be 69c5 123c 71fa f1bc
0.002472303 0.20986503 0.24831814 -0.0078082136 -0.05581118 0.026006052 0.04555894 -0.31954896
0.18217634 -0.006541606 -0.09074691 -0.064314336 -0.18891649 0.19908796 0.052264754 -0.058128268
-0.03381854 0.026712721 -0.04555076 0.10232305 -0.11198332 -0.075513415 -0.08464741 0.058791112
0.010278976 0.10664808 -0.14219162 0.06130165 -0.12337679 -0.00074501685 0.12430484 -0.098910786
0.13681224 -0.09347039 -0.027495474 -0.12937762 0.10739939 -0.22823653 -0.057073765 0.110835806
0.022716122 0.06259587 -0.09689733 -0.1624574 -0.1265827 -0.16089982 -0.060213238 0.0960355
0.0554927 0.00022601911 -0.10233353 0.048213076 0.019286038 -0.010614324 -0.054820444 -0.054952886
0.09192709 0.071575165 -0.030001434 -0.13888127 -0.009426906 0.1212144 -0.15760107 -0.068240635
-0.04365161 -0.1192765 -0.022040779 -0.07571715 0.19428132 0.027087059 -0.010077991 -0.08298544
0.13151568 -0.07939933 0.14663364 -0.076506846 0.09904876 0.028363526 -0.06164476 0.062162273
0.07377883 0.17195448 0.06698049 -0.021977574 -0.022645427 -0.071593486 0.034849543 -0.106736735
-0.091747165 0.09955015 -0.17855273 -0.11765387 0.058149744 0.05447122 0.003924122 -0.06205548
-0.038156547 -0.1196643 0.008793183 0.027014293 0.04936349 -0.071076415 0.0008410948 0.14861414
-0.06247202 -0.020814814 -0.047945444 -0.1865634 0.053640857 0.037902735 0.18217455 0.029202078
-0.019877115 -0.04317476 0.017935174 0.027862245 -0.08411744 -0.06106048 -0.087399885 -0.036512576
0.17658551 0.04588489 -0.04660055 0.11854277 0.04447429 0.014226858 0.06793005 -0.015445645
-0.0892222 -0.08945411 0.19383398 0.11538176 -0.21245411 0.07947972 -0.0036522725 -0.01300625
0.08109063 0.12437849 0.11924721 -0.16991709 0.17503937 -0.16667265 0.03445722 -0.03428514
-0.07566221 -0.061642367 -0.03336616 0.107292585 0.024506602 0.08436129 -0.05878254 0.16960429
0.17593028 -0.00093680416 -0.085498326 -0.10328213 0.23693492 2.5718926e-05 0.20196393 -0.14742509
-0.16005684 -0.053240813 0.3196842 0.01881799 0.1658673 -0.005253208 -0.15778421 0.044589058
0.11929268 0.186686 -0.08656499 0.074717 0.029229244 0.14008102 -0.04662692 -0.12218239
0.050932385 -0.09283424 0.048227083 -0.12626068 0.17229456 -0.108481504 0.021536049 -0.17672503
0.005920442 0.019016195 0.13022402 0.11971197 -0.11474805 -0.3174772 0.14809328 0.019132873
0.055902936 -0.09994203 -0.042023215 -0.07449745 0.18204503 0.001217209 -0.09871892 0.047419805
-0.2853022 0.37322125 -0.003518559 -0.055798545 0.10413353 -0.09207355 -0.024869733 0.18618284
-0.21573918 0.037278283 -0.13764933 -0.072968505 -0.05139552 0.013827184 -0.15385742 -0.1827143
0.39704216 0.2213634 0.3016553 -0.11801953 0.28622708 -0.1551604 0.3783991 0.10556776
-0.058559135 0.053549353 -0.1564246 -0.05274114 -0.055804323 -0.113867864 -0.009717222 -0.065846875
0.071689 0.094060145 -0.17736013 -0.19555256 -0.024509856 -0.0047966265 -0.018492397 -0.06451795
0.18169047 -0.1473338 -0.19235632 0.14969158 -0.053714536 -0.07531765 -0.19251356 0.07651105
0.087147824 0.14974298 0.013106093 -0.17072113 0.03264645 -0.1583183 0.008958199 -0.029538365

encoder.3.bn.weight f4 [64]
00000000: 3c44 903f 6762 853f 9418 823f 29ff 853f
00000010: f7a6 893f e6b3 903f e8f7 843f 5d43 8b3f
00000020: 0213 8b3f 854c 893f cd5d 883f 6ad5 663f
00000030: adf2 893f eb78 8f3f 241f 8b3f d642 893f
00000040: cba5 8b3f 7ce3 883f af0e 813f 8a1d 883f
00000050: 31b1 8f3f 2cc0 873f a2fb 8c3f 7836 8f3f
00000060: 7f00 903f 5ba5 933f 8fa5 8f3f 2dd5 8c3f
00000070: 5bda 863f c93b 8a3f c78c 883f fe04 653f
00000080: bb13 8e3f 62c3 873f 3ff1 8a3f f5bc 893f
00000090: 2eb3 843f 1d49 813f 58e3 823f 977a 8c3f
000000a0: 4f39 803f 020d 8c3f fa06 8b3f 497c 6f3f
000000b0: 96fe 863f 0fa6 823f bf89 843f a673 913f
000000c0: 966e 943f 95da 8a3f 7743 853f cc88 853f
000000d0: dec9 783f 59ee 8b3f 2974 913f ac34 8c3f
000000e0: bb6e 883f 1531 8e3f f7e0 8b3f e7bd 893f
000000f0: e4e7 8d3f 2412 833f 457d 7f3f fe93 8f3f
1.1270823 1.0420655 1.0163751 1.0468494 1.0754079 1.1304901 1.0388155 1.0879933
1.0865176 1.0726477 1.0653626 0.90169394 1.0777184 1.1208776 1.0868878 1.0723522
1.0909971 1.0694423 1.0082606 1.0634015 1.122595 1.0605521 1.1014292 1.1188498
1.1250151 1.1534837 1.12224 1.1002556 1.0535387 1.0799495 1.0667962 0.8946074
1.1099771 1.0606501 1.0854872 1.076079 1.0367181 1.0100437 1.022563 1.0974911
1.0017489 1.094147 1.0861504 0.9354902 1.0546443 1.0206927 1.0354537 1.1363418
1.1596248 1.0847956 1.0411214 1.0432372 0.97183025 1.0932113 1.1363574 1.0953574
1.0658792 1.1108729 1.0928029 1.0761079 1.1086392 1.0239911 0.9980052 1.1217039

encoder.3.bn.bias f4 [64]
00000000: 2e8b 79bd 8370 893e 54aa dbbd e560 173e
00000010: e9c7 ed3d 7e43 f83d ea67 5c3e a707 143e
00000020: d9cc 093e 0878 2a3e e93c 42ba 9323 c13e
00000030: 1c78 123e da80 153e e243 6a3e 3da4 223e
00000040: ad58 803e 1f3f 583e 9ecb 293d 1553 2c3e
00000050: dd34 583e 0eb3 753e b828 033e 39f9 543e
00000060: 9ad2 223e e464 e13c cade 503e e92d 043e
00000070: fbf9 8f3e 3fe8 f63d 5293 8e3d e426 de3e
00000080: e273 653e 8d56 423e 30c0 a23e cfd9 533e
00000090: ad02 c13e ea2f 233e 712e 193e d406 d73d
000000a0: d991 753e deff 583c cae2 84bd 1117 933e
000000b0: a33a 843d 842d 323e 984a 793e 633f b4bd
000000c0: 20ba 5fbc b7ee 453e 0799 633e b802 1b3c
000000d0: af0b 813e 1a41 063e 54e6 cfbd 6be3 6f3e
000000e0: c357 493e 565b 6cbd 5e40 273e de36 0b3e
000000f0: cb0b 803d 9f1c 80bd a3ce 273d c593 273e
-0.060923748 0.26843652 -0.10725847 0.14783056 0.116103955 0.12122248 0.21524015 0.14456044
0.1345705 0.16647351 -0.0007409589 0.37722453 0.1430363 0.14599934 0.22877458 0.15882964
0.25067654 0.21117829 0.04145395 0.16828568 0.21113916 0.23994085 0.12808502 0.20798196
0.1590065 0.027513929 0.20397487 0.12908138 0.28120407 0.12056016 0.06961693 0.43389046
0.22407487 0.18978329 0.31787252 0.20688556 0.37697354 0.15936247 0.14959122 0.10499349
0.23981418 0.013244597 -0.06488569 0.28728536 0.064564966 0.17400175 0.24344862 -0.088011526
-0.0136552155 0.19329344 0.22226344 0.009461097 0.25204226 0.13110772 -0.101513535 0.23426597
0.19662385 -0.057704292 0.16333148 0.13595149 0.06252249 -0.06255459 0.04096855 0.16364963

encoder.3.bn.running_mean f4 [64]
00000000: 9782 703f 7255 22bf 29e6 aa3f 5671 f7be
00000010: cadf 483f f002 11bf 44c0 213f c238 48bf
00000020: afa7 50bf e048 423f fba5 6e3f 29f0 04bf
00000030: 5857 1ebf be3b ae3e 6a51 14bf eec4 3fbf
00000040: 225c 30bc 045e b33e 9004 3c3f 470d 143f
00000050: 290a 85bf 9b93 673e 03e4 7abf 7111 203f
00000060: 2efd 023f 0e1c 843f 46de 4abf fee5 4bbf
00000070: 9b1a e03e 3a2d 31bf ddd7 0c3f c995 3dbf
00000080: bcd1 423f 219a 4b3f a187 153f 870c 63bf
00000090: ceff 3ebf db79 163f 1b59 c13e b025 033f
000000a0: 6242 233f 478e 4d3f 74f3 873f f36e 863e
000000b0: 26df 363f 8bcf 9cbe bbc1 2fbf d094 523f
000000c0: ea25 6d3f 8f1d 413f 9e9b a8be 673c 583f
000000d0: 6bb5 bebe a0cb 9cbf 8b6f 8d3f 12d8 36bf
000000e0: e59c 20bf dd0e 293f d681 743d 0507 ff3e
000000f0: 5cc3 823f fc15 923f 9f7e 3a3f c5da 46bf
0.93949264 -0.6341163 1.3351489 -0.48328656 0.78466475 -0.5664511 0.63184 -0.78211606
-0.81505865 0.7589245 0.93222016 -0.51928955 -0.61852026 0.34029955 -0.5793673 -0.74909866
-0.010764154 0.35032666 0.7344446 0.5783276 -1.0393726 0.22614901 -0.9800417 0.62526613
0.5116757 1.0321062 -0.7924541 -0.79647815 0.43770298 -0.69209635 0.5501688 -0.7405668
0.7610128 0.7953206 0.5841008 -0.8869099 -0.74609077 0.58779687 0.37763295 0.5122938
0.6377317 0.80295223 1.0621171 0.26256523 0.7143425 -0.30627093 -0.68654984 0.8225832
0.9263598 0.7543573 -0.32931226 0.84467167 -0.37247786 -1.2249641 1.1049665 -0.7142345
-0.627394 0.66038305 0.059694134 0.49810043 1.0215869 1.1412959 0.7284946 -0.77677566

encoder.3.bn.running_var f4 [64]
00000000: 01a3 0240 8e65 b13f 98dd 5c40 f681 683f
00000010: 57ba af3f 3d01 d93f ed90 a23f 2079 d73f
00000020: ea74 ad3f 5b2c bb3f 8542 e93f f153 623f
00000030: 782f af3f d99b 303f 5b46 b03f 74a5 d03f
00000040: 4108 0b3f df9d 5e3f c831 b03f 23c7 c33f
00000050: 84c2 e93f 240f 103f 0859 ee3f 9348 aa3f
00000060: 4643 583f 717c 1b40 8025 d33f 2b23 b63f
00000070: cbf6 903f f354 0b40 e075 5c3f 1d4a c53f
00000080: 5204 d33f e010 c73f 6350 833f 458f f43f
00000090: ef45 e13f 26b6 973f d454 4c3f 803b 633f
000000a0: 0fab 923f 4bb8 d53f a3da 0f40 d144 343f
000000b0: 8da8 b23f 5dcf 293f 42b8 af3f 8da0 b63f
000000c0: d7a2 fa3f 72de aa3f 86c5 fe3e 676b c03f
000000d0: b147 503f d631 1f40 c646 2440 ebc4 b23f
000000e0: e943 8e3f 3a3a b53f b5f6 863e 3af4 9e3f
000000f0: 8bf6 0f40 10a5 4040 820b b23f fc67 d23f
2.041199 1.3859117 3.451025 0.90823305 1.3728741 1.6953503 1.2700478 1.683384
1.3551304 1.4622911 1.8223425 0.88409334 1.3686361 0.68987805 1.3771471 1.6300492
0.5430947 0.8695964 1.3765192 1.5295147 1.8262486 0.562731 1.862092 1.3303398
0.8447765 2.4294703 1.6495819 1.4229482 1.1325315 2.17706 0.8611736 1.5413243
1.6485693 1.5552025 1.0258907 1.9106222 1.7599467 1.1852462 0.7981694 0.88762665
1.1458453 1.6696867 2.2477195 0.70417506 1.3957688 0.66332036 1.3728106 1.4267746
1.9580945 1.3349135 0.49760073 1.5032777 0.8135939 2.4874167 2.5668197 1.3966345
1.1114475 1.4158394 0.26360098 1.2418282 2.2494228 3.0100746 1.3909762 1.6437984
