results/GAE_64-64-64-64-64_model.pt (torch_old, 274219 bytes, 30 tensors)

encoder.0.weight f4 [22, 64]
0	0x3cfa169e	0.030528363
1	0x3e858ad1	0.2608247
2	0x3d085505	0.033284206
3	0x3e69d62d	0.22835608
4	0xbb3cd5f5	-0.0028814052
5	0x3e1a0dac	0.15044278
6	0x3a5d4da6	0.00084420515
7	0x3d2f7a3b	0.042841177
8	0xbb305403	-0.0026905544
9	0x3b348b01	0.0027548673
10	0x3cf4f8ba	0.029903758
11	0x3d7be3cf	0.061496552
12	0x3cc5983c	0.024120443
13	0x3cdbfce5	0.026853988
14	0xbcc2251b	-0.023699334
15	0x3d0516ac	0.032492325
16	0x3c35c54c	0.0110944025
17	0xbbbd127b	-0.0057700253
18	0xbda9858b	-0.082774244
19	0x3e974258	0.29542804
20	0x3d8273e6	0.06369762
21	0x3c952323	0.018205231
22	0x3c7ed7b4	0.015554357
23	0x3dcd8804	0.100357085
24	0x3c58d57f	0.013234495
25	0x3c500b92	0.012698071
26	0x3ca4f526	0.020136427
27	0xbd0223b6	-0.031772338
28	0xbe9cee84	-0.30650723
29	0x3b74d649	0.003735917
30	0xbe3d6686	-0.18496141
31	0xbd986017	-0.07440203
32	0x3e4494c7	0.19197379
33	0xbd64e29c	-0.055880174
34	0x3e6a57fc	0.22885126
35	0x3dc94838	0.09828228
36	0x3d1a8c13	0.03773124
37	0xbdf764b0	-0.120797515
38	0x3ca8b99d	0.02059632
39	0x3dd15247	0.10220771
40	0x3e91a88e	0.2844891
41	0x3e0cbfd2	0.13745049
42	0xbeb80cd6	-0.35947293
43	0xbceca836	-0.028888803
44	0xbb440622	-0.0029910882
45	0x3e182c76	0.1486071
46	0xbb86b28c	-0.00411064
47	0x3d1a8010	0.037719786
48	0x3d416709	0.047217403
49	0x3c9395aa	0.018015701
50	0x3ce8b08f	0.028404502
51	0x3cd5331c	0.026025347
52	0x3ded1228	0.11575729
53	0x3dd61ffe	0.10455321
54	0x3c74ef73	0.014949667
55	0x3e1475c4	0.14498049
56	0x3e503f6c	0.20336694
57	0xbd582869	-0.052772913
58	0x3cd0cd5d	0.02548855
59	0x3d4aa087	0.049469497
60	0xbd0cb886	-0.034355663
61	0xbe3ce555	-0.18446858
62	0xbf38dd73	-0.72212905
63	0x3e5bfcf9	0.2148322
64	0x3d89604f	0.067078225
65	0xbe55c571	-0.20876099
66	0x3dbccbe4	0.092185766
67	0x3d01853b	0.0316212
68	0x3d06a990	0.03287655
69	0xbd6853b8	-0.056720465
70	0x3d8e81ec	0.069583744
71	0xbe0f905c	-0.14019912
72	0x3d9d51e3	0.07681634
73	0x3e4c8887	0.19973956
74	0x3d966aa7	0.07344561
75	0x3c0a7f18	0.008453153
76	0x3d826f12	0.06368841
77	0x3d8f23c8	0.069892466
78	0x3eae4245	0.34034935
79	0x3dc66974	0.09688082
80	0x3df0625b	0.1173751
81	0xbef28516	-0.47367162
82	0x3d23cf14	0.039992407
83	0xbdb37a54	-0.087635666
84	0x3d7f9a57	0.06240305
85	0x3d63189a	0.055443384
86	0x3d307617	0.04308137
87	0xbe5432b5	-0.20722468
88	0x3d7bfb89	0.06151918
89	0xbe3da838	-0.18521202
90	0x3e0ae9c1	0.13565733
91	0xbc0fa7a0	-0.008767992
92	0xbd1d4345	-0.03839423
93	0x3d674de0	0.05647075
94	0xbe3f3e8c	-0.18676203
95	0x3e15b357	0.14619194
96	0x3ceac4c5	0.02865828
97	0x3e85b5af	0.26115176
98	0x3dbf476c	0.093397945
99	0x3e08a741	0.13345052
100	0x3dd48c4e	0.103783235
101	0x3c2d692c	0.010584157
102	0x3daa3672	0.08311166
103	0x3df05c82	0.117363945
104	0xbddafabd	-0.10692356
105	0x3dc7cdac	0.09756026
106	0xbdbebee6	-0.09313755
107	0x3e0d592f	0.13803552
108	0x3d62d56f	0.055379327
109	0x3e12d60c	0.14339465
110	0x3dcf772e	0.101301536
111	0x3dd2ed14	0.10299125
112	0x3e17b6f8	0.14815891
113	0x3d72a485	0.05923893
114	0x3d4cacbb	0.049969416
115	0x3c7a9436	0.015294125
116	0x3e119946	0.14218625
117	0x3d9d55f8	0.07682413
118	0x3dd89b43	0.10576489
119	0x3e1cd09f	0.15313958
120	0xbe452bab	-0.1925494
121	0x3d821f34	0.06353608
122	0xbd12abaf	-0.03580826
123	0x3e0a7ccc	0.13524169
124	0x3dc5cda5	0.09658364
125	0xbddf7750	-0.10911429
126	0x3d8d4164	0.06897238
127	0x3dde0af0	0.1084193
128	0xbd3e2ab2	-0.046427436
129	0x3e376581	0.17909814
130	0x3ce9f0bf	0.02855718
131	0x3e19ccdf	0.15019558
132	0x3cb7256c	0.022356711
133	0xbddc80dc	-0.107667655
134	0x3cc4b48a	0.024011869
135	0x3c0e3145	0.008678739
136	0x3c64158a	0.013921151
137	0x3da98965	0.08278159
138	0x3c8c097c	0.017094366
139	0xbf346dbe	-0.70479953
140	0x3c9c776a	0.01909991
141	0x3c7261bb	0.014793809
142	0x3c98b53d	0.018641109
143	0x3cec7668	0.028865054
144	0xbe55cedf	-0.20879696
145	0x3c12bad0	0.008955672
146	0xbe3c4281	-0.18384744
147	0x3e429285	0.19001205
148	0x38f60b07	0.00011732248
149	0x3bb8b637	0.005636956
150	0x3c1b2f16	0.009471675
151	0x3e37f36b	0.1796395
152	0x3cdf28d2	0.027241144
153	0x3d0186c4	0.031622663
154	0xbbece83d	-0.0072298334
155	0xbc3f07e6	-0.011659598
156	0x3da8a59d	0.08234713
157	0x3c84a35c	0.016191177
158	0xbdfe95ad	-0.12430892
159	0x3ea1af5f	0.3157911
160	0xbade7520	-0.0016972162
161	0x3e4bcb92	0.19901875
162	0x3db25737	0.08708041
163	0x3de99fb6	0.114074156
164	0x3dab774e	0.08372365
165	0x3d7e0422	0.06201566
166	0x3b84ccd8	0.0040527396
167	0x3e22a592	0.15883473
168	0x3b163257	0.0022918188
169	0x3dad736b	0.0846928
170	0x3ccbaed4	0.024863638
171	0x3e88c24c	0.26710737
172	0x3c461707	0.012090451
173	0x3d8e1e31	0.06939352
174	0x3cd76bd3	0.026296532
175	0xbe8f7a55	-0.2802302
176	0x3df6761d	0.12034247
177	0x3c2dcf94	0.0106085725
178	0x3b75d6fe	0.0037512179
179	0xbc8aeec3	-0.016959554
180	0xbdb6f989	-0.08934314
181	0x3da49fd0	0.08038294
182	0xbf515a1e	-0.8177813
183	0x3e8bcf68	0.27306676
184	0x3d62d5a5	0.05537953
185	0x3e7b3577	0.24532114
186	0xbd56e189	-0.05246118
187	0xbd0eb1e2	-0.03483761
188	0xbdfe8c22	-0.12429072
189	0xbe516517	-0.20448719
190	0x3c274efa	0.010211701
191	0x3dfb2b61	0.12264133
192	0xbbfc0445	-0.0076909387
193	0xbb5f2f5d	-0.003405533
194	0x3cab5b75	0.020917634
195	0x3e4a660a	0.19765487
196	0x3c48132c	0.012211602
197	0xbe46cf47	-0.19415008
198	0x3ca4d9e7	0.020123435
199	0xbbb21341	-0.005434424
200	0x3c9f3891	0.019436153
201	0x3cb3c95d	0.021946603
202	0x3c6afce4	0.01434252
203	0x3d59dfe9	0.053192053
204	0x3c0c7242	0.008572163
205	0x3c758bae	0.0149869155
206	0x3bbeeb75	0.0058264085
207	0x3a7c2e4b	0.00096199353
208	0xbd5e2cfc	-0.05424212
209	0x3c9b9bc7	0.018995179
210	0xbe5e00a2	-0.21679929
211	0x3e35f36b	0.17768638
212	0x3d4b1acc	0.049586102
213	0x3c971391	0.018441947
214	0x3b14e45a	0.0022719116
215	0xbd84b393	-0.064795636
216	0x3c70a6f7	0.014688245
217	0x3ca273f7	0.019830687
218	0xbcf8d025	-0.030372689
219	0x3c1a5f5a	0.009422148
220	0x3beaeb0a	0.007169132
221	0x3b7ba793	0.0038399443
222	0x3d683f0e	0.05670076
223	0xbbe2c6eb	-0.0069206855
224	0x3e36e18e	0.1785948
225	0x3b641cf5	0.0034807299
226	0x3d2a5018	0.04158029
227	0x3e0a1490	0.13484406
228	0x3deb9e77	0.11504834
229	0xbd1a03ce	-0.037601285
230	0xbbd28312	-0.006424316
231	0x3d34af90	0.044112742
232	0x3e1c06fa	0.15237036
233	0xbe0bc441	-0.13649084
234	0x3db03173	0.08603182
235	0x3e1a7d1b	0.15086786
236	0x3be7d51a	0.007074964
237	0x3e94cb6b	0.29061446
238	0x3c6ef3af	0.014584466
239	0x3e4e80e0	0.2016635
240	0x3e1d809b	0.1538109
241	0xbf24ee86	-0.6442646
242	0x3d02bcfb	0.031918507
243	0xbd9da7e0	-0.07698035
244	0xbc448db2	-0.011996673
245	0x3d9daa93	0.0769855
246	0x3abd1d41	0.0014428274
247	0x3cb6aa19	0.022297906
248	0xbd59be4c	-0.053159997
249	0x3d16353a	0.036671855
250	0xbd6743d0	-0.056461155
251	0x3e756c55	0.23967107
252	0x3c774cce	0.015093995
253	0x3e2d3bcd	0.16917343
254	0x3be8c263	0.007103251
255	0xbe71df82	-0.23620418

encoder.0.bn.weight f4 [64]
0	0x3f9a5e24	1.205998
1	0x3f85345b	1.0406603
2	0x3f9401ea	1.1563084
3	0x3f8454fa	1.0338433
4	0x3fa89f2e	1.3173578
5	0x3f65bec2	0.897442
6	0x3faf1455	1.367808
7	0x3f960d2b	1.1722769
8	0x3f9f91d3	1.2466377
9	0x3f902991	1.1262685
10	0x3faed43f	1.3658522
11	0x3f73a312	0.951707
12	0x3fba40cd	1.4551026
13	0x3f9c65dd	1.2218586
14	0x3f97924d	1.1841522
15	0x3f959fa3	1.1689342
16	0x3f4a309f	0.7898044
17	0x3f81b2b2	1.0132658
18	0x3f39cbe8	0.7257676
19	0x3f6b02a9	0.91800934
20	0x3f8a53da	1.080684
21	0x3fbe28d4	1.485621
22	0x3f8c4cae	1.0960901
23	0x3fa999b5	1.3250033
24	0x3f96755c	1.1754565
25	0x3f3d4e82	0.7394792
26	0x3f66feb1	0.9023238
27	0x3f334265	0.70023185
28	0x3f87ea0a	1.0618298
29	0x3fb57941	1.4177629
30	0x3f447a84	0.76749444
31	0x3f9b8926	1.2151229
32	0x3f80a8f2	1.0051558
33	0x3f73d053	0.9523975
34	0x3f7fe408	0.99957323
35	0x3f7094fc	0.9397733
36	0x3f84bf9e	1.0370977
37	0x3f82a840	1.0207596
38	0x3f5e9384	0.8694384
39	0x3f7235b7	0.9461321
40	0x3f86b07d	1.052261
41	0x3f82d09a	1.021991
42	0x3f7fda76	0.9994272
43	0x3f24e630	0.6441374
44	0x3fabe03b	1.3427805
45	0x3f8fdf13	1.1239952
46	0x3f6cb52c	0.92463946
47	0x3f95a582	1.1691134
48	0x3f8b0a9a	1.086261
49	0x3fc141dd	1.5098225
50	0x3fa09e82	1.2548373
51	0x3f4110d5	0.7541631
52	0x3f8980b1	1.0742399
53	0x3f83a18e	1.0283678
54	0x3fabb0b5	1.3413302
55	0x3fa28355	1.2696329
56	0x3f881099	1.0630065
57	0x3f8e42b2	1.1114104
58	0x3f85e6c2	1.0461047
59	0x3f95a7e9	1.1691867
60	0x3f738951	0.95131403
61	0x3f6a9cd5	0.91645557
62	0x3fa9e1fd	1.3272091
63	0x3f82f826	1.0231979

encoder.0.bn.bias f4 [64]
0	0x3dbc1898	0.091843784
1	0x3e10437c	0.14088243
2	0x3eb72ea6	0.35777777
3	0x3e4892e1	0.1958728
4	0x3ddd38b1	0.10801829
5	0x3edef430	0.43545675
6	0x3e1b1ed7	0.15148483
7	0x3e16cc55	0.14726384
8	0x3f047f7f	0.51757044
9	0x3d8b7568	0.06809503
10	0xbda6991a	-0.081346706
11	0x3df91ad9	0.12163324
12	0xbd752c50	-0.059856713
13	0x3e5f1aa3	0.21787505
14	0x3de60dd6	0.11233108
15	0x3eb73f41	0.35790446
16	0x3e81de6b	0.25365004
17	0x3ee18b29	0.44051483
18	0x3e39d828	0.18148863
19	0x3e8c6092	0.27417427
20	0x3e16dd93	0.14732961
21	0x3dc1f14b	0.09469851
22	0x3e962806	0.2932741
23	0x39dc6a6b	0.00042040957
24	0x3c093253	0.008373815
25	0x3ec4ebff	0.384613
26	0x3e415239	0.18879022
27	0x3e85c655	0.26127878
28	0x3e14b230	0.14521098
29	0x3d3da840	0.046303034
30	0x3e313dc7	0.17308722
31	0x3e9d3f47	0.3071234
32	0x3ea08f73	0.31359443
33	0x3ece4758	0.40288806
34	0x3d859f0b	0.06524476
35	0x3cd0065c	0.025393657
36	0x3e432777	0.19058023
37	0x3db8c249	0.09021432
38	0x3e4f701a	0.20257607
39	0x3ddb7a43	0.10716679
40	0x3e1f1514	0.15535384
41	0xbd8fc5c7	-0.07020145
42	0x3e235ea4	0.15954071
43	0x3e6b70fd	0.2299232
44	0x3e9fc693	0.31206188
45	0x3ea4ce65	0.32188717
46	0x3e8f2a9e	0.27962202
47	0xbce0ba24	-0.027432509
48	0x3e9f64ac	0.31131494
49	0x3c89ab63	0.016805356
50	0x3da65195	0.08121029
51	0x3e673a1e	0.22580764
52	0x3ddcf680	0.10789204
53	0x3e80c85d	0.25152865
54	0x3dedaa86	0.116047904
55	0x3ed19692	0.4093519
56	0x3ebaf100	0.36511993
57	0x3dc5afb6	0.09652655
58	0x3e7d4967	0.24735032
59	0x3e65192a	0.2237288
60	0x3dc159c3	0.09440949
61	0x3e526b41	0.20548727
62	0x3e32ba8d	0.17453976
63	0x3e5310d9	0.20611896

encoder.0.bn.running_mean f4 [64]
0	0xbc9e30c9	-0.019310372
1	0x3cfa7037	0.030571086
2	0xbab27192	-0.0013614169
3	0x3d00e4e1	0.031468276
4	0xbb62effe	-0.003462791
5	0x3c80c734	0.015719987
6	0xbc8ee6cf	-0.017444042
7	0xbcc33bed	-0.023832286
8	0xbb7f8c0c	-0.0038993387
9	0xbcc80d91	-0.024420531
10	0xbbd3f39d	-0.00646825
11	0xbc8552d9	-0.016274856
12	0xbc0ee19f	-0.008720784
13	0xba9e65f8	-0.0012084832
14	0xbc839c31	-0.016065689
15	0xbbb42136	-0.005497123
16	0xbc895648	-0.016764775
17	0xbbc62932	-0.0060473913
18	0x3c8f33cd	0.017480755
19	0x3cd45a5e	0.025921997
20	0xbcfe0d5a	-0.031012226
21	0xbc904706	-0.017611992
22	0xbb2101d2	-0.0024567735
23	0xbd156498	-0.036472887
24	0xbbb54830	-0.005532287
25	0xbc3d911d	-0.011570242
26	0xbcd17ba2	-0.025571648
27	0xbcd7c114	-0.026337184
28	0xbcebacea	-0.028768975
29	0xbc083043	-0.008312288
30	0xbcfeaf0a	-0.031089325
31	0x3ccffb72	0.025388453
32	0x3cc152e4	0.023599096
33	0x3ca2af1e	0.019858893
34	0x3d12110f	0.0356608
35	0x3d0bf67d	0.034170616
36	0x3cdb636f	0.026780812
37	0x3cc2ef95	0.023795882
38	0xbca37686	-0.019953977
39	0x3c8335e2	0.016016904
40	0x3cf6e88a	0.03014018
41	0x3cfdd873	0.030987
42	0x3cc3fe57	0.02392499
43	0x3c1a7620	0.009427577
44	0xbc36d585	-0.011159305
45	0x3cefabea	0.02925678
46	0xbb367076	-0.0027838028
47	0x3cf25216	0.029580157
48	0x3cca88d4	0.024723448
49	0xbc347f16	-0.011016628
50	0xbba21ad4	-0.004947046
51	0xbc4708ad	-0.012148065
52	0x3d02e50c	0.031956717
53	0x3cc8388d	0.024441028
54	0xbc2af2aa	-0.010433832
55	0x3ce47a24	0.027890272
56	0x3cc7b219	0.024376916
57	0x3cf84f20	0.030311167
58	0xbce01ea9	-0.02735837
59	0x3cef6b4e	0.029225972
60	0x3cab5117	0.02091269
61	0xbcce55b6	-0.025187355
62	0xbbcc77a9	-0.0062398505
63	0x3ce76224	0.02824504

encoder.0.bn.running_var f4 [64]
0	0x3ad5bcb3	0.0016306847
1	0x3b0063c1	0.0019590708
2	0x3a11a901	0.00055564946
3	0x3b0d0103	0.0021515496
4	0x3a5600c2	0.0008163565
5	0x3a878183	0.001033828
6	0x3b028628	0.001991639
7	0x3afa2b60	0.0019086413
8	0x3a860efe	0.0010227857
9	0x3b1df3b6	0.0024101562
10	0x3a4e438e	0.0007868343
11	0x3acdca15	0.0015700484
12	0x3a93aa29	0.0011265922
13	0x39de6c48	0.00042423815
14	0x3a52798a	0.0008028975
15	0x3a2673ab	0.00063496333
16	0x3a834717	0.0010015693
17	0x3a4dd715	0.0007852179
18	0x3ab7a96f	0.0014012287
19	0x3af519c7	0.0018699699
20	0x3b261376	0.002534119
21	0x3ae0427c	0.0017109658
22	0x39a8553a	0.00032106956
23	0x3b4a5c64	0.0030877823
24	0x3a361036	0.00069451646
25	0x3a715dc4	0.00092073926
26	0x3aeda782	0.0018131586
27	0x3b090536	0.0020907647
28	0x3b02a730	0.0019936077
29	0x3a83899e	0.001003552
30	0x3b26a762	0.0025429358
31	0x3ae441c1	0.0017414616
32	0x3ab27299	0.0013614475
33	0x3ab10c08	0.0013507614
34	0x3b2779e8	0.002555484
35	0x3b1cae08	0.0023907442
36	0x3abdd1f3	0.0014482125
37	0x3aa842c8	0.0012837285
38	0x3ae44c90	0.0017417837
39	0x3a7d0f0a	0.0009653425
40	0x3b03460f	0.0020030772
41	0x3b1b26e3	0.0023674301
42	0x3aa798ef	0.0012786667
43	0x3a723eeb	0.0009240943
44	0x3a8a0d88	0.0010532597
45	0x3b09d7bf	0.0021033136
46	0x39ec0e96	0.00045024295
47	0x3b072c96	0.002062594
48	0x3ad13813	0.0015962146
49	0x3a8d8730	0.0010797735
50	0x3a889218	0.0010419516
51	0x3aae7c1b	0.0013312133
52	0x3b160148	0.0022888947
53	0x3ab5769f	0.0013844556
54	0x3abfe114	0.0014639222
55	0x3b04ef9f	0.0020284427
56	0x3abe1a72	0.0014503731
57	0x3b042674	0.0020164521
58	0x3af4b0cf	0.0018668416
59	0x3b039841	0.0020079764
60	0x3ab33aba	0.0013674118
61	0x3aebe854	0.0017998316
62	0x3a4f4cfd	0.00079078955
63	0x3afbd1fb	0.0019212359

encoder.1.weight f4 [64, 64]
0	0xbd94c708	-0.07264525
1	0xbcc52f26	-0.024070334
2	0x3f463275	0.7742074
3	0xbdca83bd	-0.09888408
4	0xbc69427c	-0.0142370425
5	0x3cccc23c	0.024994962
6	0x3e238d1a	0.15971795
7	0x3dc09a02	0.09404375
8	0x3dc6e533	0.09711685
9	0xbd7f699a	-0.06235657
10	0xbd845142	-0.06460811
11	0x3df79255	0.120884575
12	0x3dc5fec6	0.09667735
13	0xbdc99a91	-0.09843934
14	0xbe9284ef	-0.28617045
15	0x3e60372b	0.21896045
16	0x3e4deb3d	0.20109268
17	0x3d34c122	0.0441295
18	0xbe211cc9	-0.15733637
19	0xbc4076a6	-0.011747038
20	0xbd824235	-0.06360284
21	0x3a13e74d	0.00056420715
22	0x3e03ced7	0.12871872
23	0xbd9172a6	-0.071019456
24	0x3e7efd91	0.24901415
25	0x3d0f6add	0.035014022
26	0x3e939834	0.2882706
27	0x3c83d436	0.016092401
28	0x3e0a50c3	0.1350737
29	0xbd24701f	-0.04014599
30	0x3e5f62b2	0.21814993
31	0xbdde2cec	-0.10848412
32	0x3d92ceae	0.07168327
33	0x3dbb693d	0.09150932
34	0xbd20d2a7	-0.039263394
35	0xbb65eea4	-0.0035084868
36	0xbe630d6c	-0.22173089
37	0x3d10b8b4	0.035332397
38	0x3e049855	0.12948735
39	0x3c9aeb35	0.018910984
40	0xbbd4679b	-0.0064820773
41	0xbd528d87	-0.051404502
42	0x3e5bdb72	0.2147043
43	0x3cc09cf1	0.023512335
44	0xbdadf6fe	-0.08494376
45	0x3cf25525	0.029581616
46	0x3e1ff9bf	0.15622614
47	0xbdf9ee22	-0.12203623
48	0x3ddf520e	0.109043226
49	0x3da99a57	0.08281391
50	0x3d4906c9	0.049078736
51	0x3e372721	0.1788602
52	0x3dfc4709	0.123182364
53	0xbe627f81	-0.22118951
54	0x3d933272	0.07187356
55	0xbc91f9d0	-0.017819315
56	0xbe0b01ea	-0.13574949
57	0xbe1e575c	-0.15463012
58	0x3db420cd	0.08795319
59	0xbe2c3721	-0.16817905
60	0xbd6d6c57	-0.05796465
61	0xbe6a40f3	-0.22876339
62	0xbe3e80f8	-0.18603885
63	0x3e410350	0.1884892
64	0xbc974b1a	-0.018468428
65	0xbe3030cb	-0.17206113
66	0x3c6ea6ed	0.014566165
67	0x3e5920b3	0.2120388
68	0xbe19a74d	-0.15005226
69	0xbe02d49c	-0.12776417
70	0x3de10b9f	0.10988545
71	0x3e4ca298	0.199839
72	0x3e5e8d6d	0.21733637
73	0x3cab9e55	0.020949522
74	0x3e01b7a1	0.12667705
75	0x3d762f15	0.060103495
76	0xbc535e5a	-0.012900913
77	0x3da1563d	0.07877777
78	0xbcd01e22	-0.025404993
79	0xbdc2f305	-0.095190085
80	0x3dbe7323	0.09299304
81	0x3db6c12d	0.08923564
82	0xbda01cc9	-0.0781799
83	0x3e4cadc2	0.19988158
84	0x3d907d74	0.07055178
85	0x3e1fc9eb	0.1560437
86	0x3e3715a2	0.17879346
87	0x3e25658c	0.16152018
88	0x3e1083d7	0.14112793
89	0x3d8762b1	0.06610621
90	0xbd72c367	-0.05926838
91	0x3df31908	0.11870009
92	0xbda04845	-0.07826284
93	0xbda3174e	-0.079634294
94	0x3e40a253	0.18811922
95	0x3e1545b4	0.14577371
96	0x3d80cc99	0.06289024
97	0xbd96a905	-0.07356457
98	0x3dc27bc4	0.09496263
99	0x3c4d941a	0.012547517
100	0xbde87413	-0.113502644
101	0x3e3112cc	0.17292327
102	0xbe0e5129	-0.13898148
103	0x3c2a6ef3	0.010402429
104	0x3d382a04	0.044961944
105	0x3c9c8e3b	0.01911079
106	0x3dad49ff	0.08461379
107	0xbe113b14	-0.14182693
108	0x3e3ce1a2	0.18445447
109	0x3e83ecd5	0.25766626
110	0xbc86ae27	-0.016440464
111	0x3c807c24	0.015684195
112	0xbdc54eb2	-0.096341506
113	0xbc5a10bc	-0.013309654
114	0x3d765207	0.06013682
115	0x3c1a145a	0.009404266
116	0x3dab88f1	0.08375729
117	0xbd10a80d	-0.035316516
118	0x3e3dcc40	0.18534946
119	0x3d955700	0.072919846
120	0x3d33b847	0.043876912
121	0x3d7c9c60	0.06167257
122	0x3d969770	0.07353103
123	0x3d9ac4d7	0.075570755
124	0xbd208e65	-0.039198298
125	0xbde31780	-0.11088467
126	0x3d965810	0.07341015
127	0x3dba979a	0.09110947
128	0xbc69f358	-0.014279209
129	0xbdd9fdd0	-0.10644114
130	0x3dc56e71	0.09640206
131	0x3c86d253	0.016457712
132	0xbd7738fc	-0.06035708
133	0x3c3e424f	0.011612489
134	0x3dcd4344	0.100225955
135	0x3de9f506	0.11423688
136	0x3de6d825	0.11271695
137	0x3deebf60	0.11657596
138	0x3deec274	0.11658183
139	0x3dcd2cd9	0.1001832
140	0x3d438ced	0.04774182
141	0xbd8d7749	-0.069075175
142	0x3e546958	0.2074331
143	0xbdd5f541	-0.10447169
144	0xbe5120eb	-0.20422713
145	0x3ddc76e7	0.10764866
146	0x3e0523e4	0.13001972
147	0x3e030905	0.1279641
148	0xbec9dbd5	-0.3942553
149	0x3d850b60	0.0649631
150	0xbba6da4c	-0.005091941
151	0x3e2090d8	0.15680254
152	0x3d88eac7	0.06685405
153	0xbea9be03	-0.3315278
154	0x3d84bc09	0.06481177
155	0x3d84937c	0.06473443
156	0x3dfd7a60	0.12376857
157	0x3cfb89ba	0.030705322
158	0xbd1e7738	-0.038687915
159	0x3ba3d9ed	0.005000344
160	0x3e20e4c8	0.15712273
161	0xbac10f25	-0.0014729245
162	0xbe386d07	-0.1801034
163	0xbe7a088b	-0.24417321
164	0xbd87aa71	-0.06624306
165	0xbec1eda1	-0.3787661
166	0x3e8bd53f	0.2731113
167	0xbdf7e738	-0.12104648
168	0x3e05f84a	0.13082996
169	0x3b924b74	0.004464561
170	0x3e57acaf	0.21061967
171	0x3d11a9d6	0.03556236
172	0xbbb01b1a	-0.0053743245
173	0xbaccaf76	-0.0015616256
174	0x3d1800f7	0.037110295
175	0x3e9bd9a1	0.30439475
176	0x3dd30167	0.10303002
177	0x3e56c3fb	0.20973198
178	0xbe95eb47	-0.29281065
179	0x3d441a30	0.047876537
180	0x3e48df93	0.19616537
181	0xbe08c80b	-0.1335756
182	0x3e241dc1	0.16026975
183	0x3e0b2716	0.13589129
184	0x3e516019	0.20446815
185	0xbd76248e	-0.060093455
186	0x3dd2987c	0.1028299
187	0xbb4d8ea8	-0.0031365547
188	0xbdc6a8cc	-0.09700164
189	0x3e805e25	0.25071827
190	0x3e9c9269	0.30580452
191	0xbcdaf7d8	-0.02672951
192	0x3b85a4ec	0.004078498
193	0x3e360773	0.17776279
194	0x3e56ed3f	0.2098894
195	0xbdf2e7a0	-0.11860585
196	0xbd82e28f	-0.06390869
197	0xbaaba79f	-0.001309622
198	0x3e073419	0.13203467
199	0x3e1e3904	0.15451437
200	0x3d8713a1	0.06595541
201	0x3d2ceb84	0.042216793
202	0x3e1c90f5	0.15289672
203	0x3d9d4361	0.07678867
204	0x3cb4905c	0.022041492
205	0x3e53b752	0.206754
206	0x3d02ccf0	0.031933725
207	0x3cb517f4	0.022106148
208	0x3dd84af3	0.105611704
209	0x3dcd170c	0.100141615
210	0x3cb49dd0	0.022047907
211	0xbc7b60dd	-0.015342918
212	0x3d6b555e	0.05745446
213	0x3e3e54e6	0.18587074
214	0x3e1f549b	0.15559618
215	0x3e189e77	0.149042
216	0x3df56e9a	0.11983986
217	0x3d7e6d83	0.062116157
218	0x3e1df1e1	0.154243
219	0x3b0300fe	0.0019989605
220	0x3e54ef81	0.20794488
221	0x3d3d923b	0.046282034
222	0x3daf3608	0.085552275
223	0xbd4e3d78	-0.05035159
224	0x3d913b88	0.07091433
225	0xbe597756	-0.2123693
226	0xbde0b2e1	-0.109716184
227	0xbda2aeb3	-0.079434775
228	0x3d82a0ec	0.0637835
229	0x3e0d2b9a	0.13786164
230	0xbe1e0332	-0.15430906
231	0x3d0aebd4	0.03391631
232	0x3e319366	0.17341384
233	0x3e4265f1	0.189842
234	0xbd887bcc	-0.066642374
235	0xbc878aa4	-0.016545601
236	0xbd32d2a2	-0.043657906
237	0xbc7a7a76	-0.015287986
238	0xbb23444a	-0.002491253
239	0xbd9091ba	-0.07059045
240	0xbd42fdb4	-0.04760523
241	0x3e3cdbd0	0.18443227
242	0x3df6b7a6	0.12046747
243	0x3e52390f	0.20529579
244	0x3d57c7f5	0.05268093
245	0x3db72da3	0.089442514
246	0x3e277a6f	0.16355298
247	0xbe0f3c44	-0.13987833
248	0xbd966f19	-0.07345409
249	0xbd691d75	-0.056912858
250	0xbdc9312f	-0.09823834
251	0x3cbdda17	0.023175282
252	0xbd077041	-0.033066038
253	0xbd390372	-0.0451693
254	0x3d36df59	0.044646595
255	0xbda4a3ab	-0.0803903

encoder.1.bn.weight f4 [64]
0	0x4003f04d	2.0615418
1	0x3fd9aaf0	1.7005291
2	0x4001b80f	2.026859
3	0x3ff0e0e9	1.8818637
4	0x3fcf6263	1.62019
5	0x401fc41b	2.4963443
6	0x40001534	2.0012941
7	0x400322c5	2.0489972
8	0x40118335	2.2736332
9	0x3fe13cf0	1.7596722
10	0x3fabf9d4	1.3435616
11	0x40146d9b	2.3191898
12	0x3ff241c1	1.8926316
13	0x4003d38f	2.0597875
14	0x3ff3f808	1.9060068
15	0x3fffd0b3	1.9985565
16	0x40002cc5	2.0027325
17	0x3ffc0444	1.9688802
18	0x40035185	2.0518506
19	0x3fff8c1e	1.9964635
20	0x4000d981	2.0132754
21	0x400565f6	2.0843482
22	0x3ffd4ca9	1.978902
23	0x40062641	2.0960848
24	0x3ff68047	1.9257897
25	0x40010834	2.0161257
26	0x4006f7b7	2.1088693
27	0x3fdab5ee	1.708677
28	0x3ffec146	1.9902732
29	0x3fd4a628	1.6613207
30	0x3fff71ff	1.9956664
31	0x3fb47493	1.4098076
32	0x40047696	2.069738
33	0x3fb37fd9	1.4023391
34	0x4001c6b1	2.0277522
35	0x3fffbc1e	1.9979284
36	0x40063a91	2.0973246
37	0x4001755c	2.022788
38	0x3ffd206c	1.9775519
39	0x40033132	2.0498776
40	0x40015dd4	2.0213518
41	0x3ff13980	1.8845673
42	0x3feee8c4	1.8664784
43	0x400c6501	2.1936648
44	0x3ffdea2a	1.9837086
45	0x3ffd6cf7	1.9798878
46	0x4009543d	2.1457665
47	0x3ffc19a1	1.9695321
48	0x40161e98	2.3456173
49	0x40004ceb	2.0046947
50	0x4001c37d	2.0275567
51	0x3ffcce20	1.9750404
52	0x40084ffe	2.1298823
53	0x40077732	2.11665
54	0x3ff84365	1.9395567
55	0x40083be1	2.1286547
56	0x3ffd6a37	1.9798039
57	0x4001f5b5	2.0306218
58	0x3ffefdef	1.9921244
59	0x4001ee78	2.03018
60	0x3fe927db	1.8215288
61	0x400491a8	2.0713902
62	0x3ff016f3	1.8757004
63	0x3fc6ba57	1.5525616

encoder.1.bn.bias f4 [64]
0	0x3ea09ee2	0.31371218
1	0x3e8eb7ab	0.27874503
2	0x3f556fd6	0.83373773
3	0x3f5b8d6d	0.85762674
4	0xbdc6f187	-0.097140364
5	0x3e975d8b	0.29563555
6	0x3f532a87	0.82486767
7	0x3f5a7424	0.85333467
8	0x3f523e32	0.8212615
9	0x3f0cc1e8	0.5498338
10	0x3e4785c4	0.19484621
11	0x3ef463d9	0.47732428
12	0x3f4456e7	0.766951
13	0x3f692bcc	0.91082454
14	0x3f50f822	0.8162862
15	0x3f344fe4	0.70434403
16	0x3f58e756	0.8472799
17	0x3f39d03f	0.72583383
18	0x3f803ee8	1.0019197
19	0x3f6b74fe	0.9197539
20	0x3f47fccb	0.78120106
21	0x3f5e1ef2	0.8676597
22	0x3f6bc01c	0.9209001
23	0x3f51a5e7	0.8189377
24	0x3f46d0be	0.77662265
25	0x3f684e24	0.90744233
26	0x3f57f006	0.8435062
27	0x3edd0b89	0.43172863
28	0x3f424587	0.7588734
29	0x3ddcb587	0.10776811
30	0x3f5b40a7	0.85645527
31	0x3e862e2a	0.26207095
32	0x3f8553fe	1.0416257
33	0x3e42a090	0.19006562
34	0x3f752c1d	0.95770437
35	0x3f4ca00c	0.7993171
36	0x3f6fcef1	0.9367514
37	0x3f5613d0	0.8362398
38	0x3f39ed9d	0.72628194
39	0x3f71ca98	0.9444976
40	0x3f7a493c	0.97767997
41	0x3f5a88f5	0.8536523
42	0x3f4e0954	0.80482984
43	0x3f6e3b88	0.9305959
44	0x3f46fd2c	0.7773006
45	0x3f48123c	0.78152823
46	0x3e868a57	0.2627742
47	0x3f6d79f4	0.9276421
48	0x3eb8ed32	0.36118466
49	0x3f82b6ad	1.0211998
50	0x3f5fc4a1	0.87409407
51	0x3f697090	0.9118738
52	0x3f6587ae	0.89660156
53	0x3f787213	0.97049063
54	0x3f608e8c	0.8771751
55	0x3f8a57c6	1.0808036
56	0x3f4e7089	0.80640465
57	0x3f4c7431	0.79864794
58	0x3f45fdba	0.7734028
59	0x3f6a1dad	0.9145153
60	0xbe0a35a3	-0.13497023
61	0x3f592457	0.84821075
62	0x3f4f12de	0.80888164
63	0x3eaba05e	0.33520788

encoder.1.bn.running_mean f4 [64]
0	0x3d610f41	0.054946188
1	0xbcfb2b62	-0.030660335
2	0x3ebaae4f	0.36461112
3	0x3e7ca0b2	0.24670675
4	0xbd98bfe2	-0.07458474
5	0xbc8b6ed9	-0.01702063
6	0x3e5e5792	0.21713093
7	0x3de6cdfb	0.112697564
8	0x3da76f30	0.08175504
9	0x3eb35a35	0.3502976
10	0x3cf25d43	0.029585486
11	0xbd03668f	-0.03208023
12	0x3e56a1c5	0.20960148
13	0x3e89fc52	0.26950318
14	0x3e9f5b15	0.31124178
15	0x3e746070	0.23864913
16	0x3e7b752d	0.24556418
17	0x3e95a36f	0.29226252
18	0x3e5e5662	0.2171264
19	0x3e8fe322	0.28102976
20	0x3ea42f83	0.320675
21	0x3e4093e8	0.18806422
22	0x3e8de5c6	0.27714366
23	0x3e52109c	0.20514148
24	0x3e78e1c0	0.24304867
25	0x3e60f042	0.21966651
26	0x3e752587	0.23940097
27	0x3d8778a0	0.06614804
28	0x3e03837b	0.12843125
29	0xbd2c7335	-0.042102057
30	0x3e79e215	0.2440265
31	0x3be85313	0.0070899813
32	0x3e505b3b	0.20347302
33	0xbd353271	-0.044237558
34	0x3eadac49	0.33920506
35	0x3ea89b1e	0.32930845
36	0x3eb146a2	0.346242
37	0x3e4e3bd4	0.2014001
38	0x3ea14490	0.31497622
39	0x3e69806c	0.22802895
40	0x3e812e6d	0.25230733
41	0x3db23405	0.08701328
42	0x3eb773ad	0.3583044
43	0x3e7aecae	0.24504349
44	0x3e4d5dc1	0.20055296
45	0x3dc83bf8	0.09777063
46	0xbd109056	-0.0352939
47	0x3ebeb857	0.37250015
48	0x3d18d5b2	0.03731317
49	0x3e9c5efa	0.3054121
50	0x3e992da8	0.29917645
51	0x3e83a170	0.25709105
52	0x3e83942e	0.2569899
53	0x3eb6710f	0.35633132
54	0x3e3b84d9	0.18312396
55	0x3eb572fa	0.35439283
56	0x3e97088a	0.29498702
57	0x3e831161	0.25599197
58	0x3e946411	0.28982595
59	0x3e729560	0.23689795
60	0xbd83d3a7	-0.06436854
61	0x3eaeaa11	0.34114125
62	0x3ea03798	0.31292415
63	0x3d6cce65	0.05781402

encoder.1.bn.running_var f4 [64]
0	0x3e8ac514	0.27103484
1	0x3e443ae0	0.19163084
2	0x3ed3d6e5	0.4137489
3	0x3e9d5257	0.30726883
4	0x3d92eccf	0.07174074
5	0x3e0a9c6e	0.13536236
6	0x3e55f43c	0.2089395
7	0x3e0c8d84	0.13725859
8	0x3e0e8d7a	0.13921157
9	0x3e9dac12	0.30795342
10	0x3df41623	0.11918285
11	0x3de97064	0.1139839
12	0x3e323031	0.17401196
13	0x3e6fa773	0.2340372
14	0x3e97f917	0.29682228
15	0x3e60ed06	0.21965417
16	0x3e509f1e	0.20373198
17	0x3e6ada79	0.22934903
18	0x3e209cac	0.15684766
19	0x3e94173d	0.2892398
20	0x3e9e898d	0.30964318
21	0x3e4b8fa5	0.19879015
22	0x3e5dd910	0.21664834
23	0x3e7db227	0.24774991
24	0x3e47d83b	0.19516079
25	0x3e34ca64	0.17655331
26	0x3e516284	0.20447737
27	0x3df26151	0.11834968
28	0x3e430657	0.19045387
29	0x3e5413f6	0.2071074
30	0x3e853f9e	0.260251
31	0x3d97e168	0.0741604
32	0x3e5a35ce	0.21309587
33	0x3df55787	0.11979585
34	0x3e9dc662	0.30815417
35	0x3e9ebd71	0.31003907
36	0x3eae2d71	0.34019044
37	0x3e4168c2	0.18887618
38	0x3e9f7918	0.31147075
39	0x3e82b23b	0.25526604
40	0x3e80c5d4	0.2515093
41	0x3dff4830	0.124649405
42	0x3ea8bab3	0.3295494
43	0x3e7a9ec8	0.24474633
44	0x3e4a4e77	0.19756494
45	0x3e21633f	0.15760516
46	0x3e09d7de	0.13461253
47	0x3ed76279	0.42067316
48	0x3dd304d4	0.10303655
49	0x3eaf9305	0.34291855
50	0x3e99e884	0.30060208
51	0x3e675442	0.22590736
52	0x3e726b28	0.2367369
53	0x3ec6750c	0.38761175
54	0x3e35cc55	0.17753728
55	0x3eb14dbf	0.34629628
56	0x3e822f9a	0.25426942
57	0x3e49e9d9	0.19718112
58	0x3e73a07e	0.23791692
59	0x3e837c6f	0.25680873
60	0x3dbf4bb5	0.09340612
61	0x3ebd3911	0.369576
62	0x3e73f855	0.238252
63	0x3dd5fa12	0.10448088

encoder.2.weight f4 [64, 64]
0	0x3d0e0861	0.03467596
1	0xbd1b70e7	-0.03794947
2	0x3df15b2e	0.11784969
3	0x3dd08f10	0.10183537
4	0xbd41400f	-0.04718023
5	0xbc11a9da	-0.008890593
6	0xbdcdbadf	-0.100454085
7	0xbd2c2728	-0.04202953
8	0xbe6a5603	-0.22884373
9	0xbe3fbf7d	-0.1872539
10	0x3bd263cd	0.0064205886
11	0xbd65e95d	-0.056130756
12	0x3d25d49e	0.04048597
13	0x3de6738f	0.1125251
14	0x3e16375c	0.14669555
15	0x3c90a2f8	0.017655835
16	0xbe5f3802	-0.21798709
17	0xbe11a73c	-0.14223951
18	0x3d184e5d	0.037184108
19	0x3e9191bd	0.28431502
20	0xbe5f993f	-0.21835802
21	0x3e5ea519	0.21742667
22	0xbdc4194b	-0.09575137
23	0xbd9de0a1	-0.0770886
24	0xbd7cf1af	-0.061753925
25	0xbce75989	-0.028240936
26	0xbdb22d3b	-0.08700033
27	0x3e358ae2	0.17728761
28	0x3d842367	0.06452065
29	0xbe07cde5	-0.13262136
30	0xbc7e18e7	-0.015508867
31	0x3d959671	0.07304085
32	0xbcf70f1c	-0.030158572
33	0xbcd2f2c2	-0.025750522
34	0xbdc714fc	-0.09720799
35	0xbcefd12e	-0.02927455
36	0xbcfac176	-0.030609827
37	0x3d9fdd48	0.07805878
38	0x3d9fcf0d	0.07803164
39	0xbcbe0515	-0.023195783
40	0xbd1b6e5e	-0.03794705
41	0xbd63330c	-0.055468604
42	0xbd293076	-0.04130598
43	0xbe15d623	-0.14632468
44	0x3ead4925	0.33844867
45	0xbd8d77cd	-0.06907616
46	0xbe13be98	-0.14428174
47	0x3e75504e	0.23956415
48	0xbcaee085	-0.021347294
49	0xbd893153	-0.06698861
50	0xbe219529	-0.15779556
51	0x3d7044fe	0.058659546
52	0xbd24027c	-0.04004143
53	0xbd713fc6	-0.05889871
54	0xbd232adb	-0.039835792
55	0xbe55f65d	-0.20894761
56	0x3e6dcdf5	0.23223098
57	0x3f02a92f	0.51039404
58	0x3ea45eca	0.32103568
59	0x3c2ede26	0.0106730815
60	0xbcefe37f	-0.029283283
61	0xbe1892db	-0.14899771
62	0x3dafbbb3	0.08580723
63	0x3e394269	0.1809174
64	0xbca9e5c7	-0.02073945
65	0x3e8934ba	0.2679804
66	0x3ceb36a8	0.028712586
67	0xbddd8006	-0.10815434
68	0xbdc3110a	-0.09524734
69	0xbd558baa	-0.052135147
70	0xbd95c05d	-0.07312081
71	0x3d7d5288	0.061846286
72	0xbc179f06	-0.009254223
73	0x3dd3a31b	0.10333844
74	0xbdb4a753	-0.08820977
75	0xb925ccfa	-0.00015811986
76	0xbc14a821	-0.009073288
77	0xbe4b39cf	-0.19846271
78	0x3e65ad07	0.22429286
79	0xbdaac207	-0.08337789
80	0x3cb68ace	0.022282984
81	0xbdc4c408	-0.096077025
82	0xbde9822c	-0.114017814
83	0x3d861ab2	0.065480605
84	0x3e654634	0.22390062
85	0xbd501f5d	-0.05081116
86	0x3eee444e	0.46536487
87	0xbd33ab7a	-0.043864705
88	0xbe2769a7	-0.16348897
89	0xbcc7ea46	-0.024403702
90	0xbe0b2c04	-0.1359101
91	0x3e0323b1	0.12806584
92	0xbdceb634	-0.10093346
93	0x3e2d102d	0.16900702
94	0xbdc41bed	-0.09575639
95	0x3d564144	0.052308336
96	0x3e2cfc79	0.16893186
97	0xbc52dc42	-0.012869896
98	0x3e50573e	0.2034578
99	0x3dc429e5	0.09578303
100	0xbe223a5a	-0.15842572
101	0xbe16dd20	-0.1473279
102	0xbe472f32	-0.19451597
103	0xbd594c0e	-0.053051047
104	0x3e5ddff2	0.2166746
105	0x3f1f891f	0.62318605
106	0xbd92e038	-0.071716726
107	0xbe3bdba6	-0.18345508
108	0x3df3c659	0.11903066
109	0xbdbe212d	-0.092836715
110	0xbdd9816d	-0.10620389
111	0x3e1b685d	0.1517653
112	0xbd0d3200	-0.03447151
113	0x3d2fb2e0	0.042895198
114	0xbe08965e	-0.1333861
115	0xbbcb1185	-0.006197157
116	0xbd83f21f	-0.06442665
117	0x3e7242c7	0.23658286
118	0x3db46343	0.08807995
119	0xbe119a94	-0.14219123
120	0xbd3ddade	-0.046351306
121	0xbd545451	-0.051838223
122	0xbd57cbdc	-0.05268465
123	0xbba60714	-0.0050667617
124	0x3b5211b8	0.0032054018
125	0xbdb0f435	-0.08640329
126	0xbc80e5c7	-0.015734566
127	0xbdd1a2a4	-0.10236099
128	0xbe50f10f	-0.20404457
129	0xbdf95f51	-0.12176383
130	0xbe5e5fea	-0.21716276
131	0x3d1dd23f	0.038530584
132	0xbce45bf6	-0.027875882
133	0x3d94e655	0.07270495
134	0xbced3e0f	-0.028960256
135	0x3ec762f1	0.38942674
136	0xbd486c14	-0.048931196
137	0x3d92d924	0.071703225
138	0xbe3cd91e	-0.18442199
139	0xbe1f72c0	-0.15571117
140	0x3e135e85	0.14391525
141	0xbdffbe0c	-0.124874204
142	0xbdac51cc	-0.08414039
143	0x3dd1553e	0.10221337
144	0x3e3474ed	0.17622729
145	0xbd1ec04f	-0.03875762
146	0xbe253c9e	-0.16136405
147	0x3e5bb147	0.21454345
148	0xbd910241	-0.07080508
149	0xbb9169b9	-0.004437652
150	0xbc450d33	-0.012027073
151	0xbd9b7ac8	-0.07591778
152	0x3daa8839	0.08326764
153	0x3ca5ab92	0.020223413
154	0xbe131ff2	-0.14367655
155	0xbdce50cd	-0.10074005
156	0xbd6f74e6	-0.058461092
157	0x3d61964b	0.05507497
158	0x3d915cf7	0.0709781
159	0x3e3d164f	0.18465541
160	0xbced0621	-0.028933587
161	0x3bf4a0e8	0.0074654706
162	0x3d6e30a5	0.05815186
163	0x3d5a208c	0.053253695
164	0x3d8523a2	0.06500937
165	0xbc2476ca	-0.010038087
166	0x3e0ed9c4	0.13950258
167	0xbdbbd828	-0.09172088
168	0xbdd6c96f	-0.10487639
169	0x3d0f4819	0.034980867
170	0x3db0412f	0.08606183
171	0xbe7b8168	-0.24561083
172	0x3dde0b31	0.10841978
173	0x3e6aa9d4	0.22916347
174	0xbd3cfd6c	-0.04614012
175	0xbdf39967	-0.118944936
176	0x3daa6f93	0.08322062
177	0x3e0edb2f	0.139508
178	0xbd954e15	-0.072902836
179	0xbe114b28	-0.14188826
180	0x3e00375c	0.12521118
181	0xbd17f2bf	-0.037096735
182	0x3ebdd811	0.37078908
183	0xbe6167d1	-0.22012259
184	0x3d1ae9c6	0.0378206
185	0x3e6121dc	0.21985573
186	0xbe09d889	-0.13461508
187	0xbe1ffd5f	-0.15623997
188	0x3e2484ff	0.16066359
189	0xbde39f8b	-0.11114415
190	0x3e113ab5	0.14182551
191	0x3d90fee0	0.070798635
192	0xbe0422c4	-0.12903887
193	0x3e13bc8e	0.14427397
194	0xbc98564b	-0.018595835
195	0xbdcc9da7	-0.09991007
196	0xbb908f2b	-0.004411598
197	0x3d8c17de	0.0684049
198	0x3e5c0a67	0.21488343
199	0x3de95a81	0.113942154
200	0xbdbf8f66	-0.09353523
201	0xbd7dd4ca	-0.06197051
202	0xbe525d15	-0.2054332
203	0xbd28a600	-0.041173935
204	0x3d687eb1	0.056761447
205	0x3e46ae40	0.19402409
206	0x3d93d416	0.072181866
207	0x3e1147c2	0.1418753
208	0x3d298b12	0.041392393
209	0x3e0bb76a	0.13644186
210	0xbcab3bcf	-0.020902542
211	0xbd7f0228	-0.062257916
212	0xbd4a025c	-0.049318656
213	0xbdfbef20	-0.12301469
214	0x3dbdabd0	0.09261286
215	0x3c0e7a16	0.0086961
216	0xbda926e2	-0.082593694
217	0x3d945300	0.072423935
218	0x3cf8c0c0	0.030365348
219	0x3da4f8e5	0.08055285
220	0x3e8c3377	0.27383015
221	0x3e125732	0.14291075
222	0x3e2aa172	0.16663149
223	0xbcb3222c	-0.02186688
224	0x3d55a9d4	0.052163914
225	0xbe1526fa	-0.1456565
226	0x3d794639	0.060857985
227	0xbea8a44e	-0.32937855
228	0x3de46786	0.11152558
229	0x3cd1d367	0.0256135
230	0xbec400d7	-0.3828189
231	0xbd1267f9	-0.035743687
232	0xbd88e52d	-0.06684337
233	0xbc23816c	-0.009979587
234	0xbe03fda7	-0.1288973
235	0x3e702e1e	0.23455092
236	0xbe1896eb	-0.1490132
237	0x3da3fa6c	0.080067486
238	0x3c54292f	0.012949272
239	0x3e9c85fe	0.30570978
240	0xbab08028	-0.0013465928
241	0xbd92c75f	-0.07166933
242	0x3df52baa	0.11971219
243	0xbe0a1f1f	-0.13488434
244	0xbd7fa108	-0.06240943
245	0x3e80da81	0.25166705
246	0x3e7d636e	0.2474496
247	0x3da9885c	0.082779616
248	0x3e11dc0c	0.14244097
249	0xbdc3e7ba	-0.09565683
250	0x3e5ab262	0.2135711
251	0x3dac45e6	0.084117696
252	0x3c7c941d	0.015416172
253	0xbe1b2546	-0.15150937
254	0xbd65940f	-0.056049403
255	0xbc094902	-0.008379223

encoder.2.bn.weight f4 [64]
0	0x3fa6a00b	1.3017591
1	0x3fa2aebd	1.2709576
2	0x3f8ecd45	1.1156393
3	0x3fbeadcc	1.4896789
4	0x3f9ae2af	1.2100428
5	0x3faddd93	1.3583244
6	0x3faf1349	1.367776
7	0x3fb9a112	1.450228
8	0x3fc1f6bd	1.5153424
9	0x3fb31028	1.3989305
10	0x3fbf6a4f	1.4954318
11	0x3fb28955	1.394816
12	0x3fb6de31	1.4286557
13	0x3fbb6859	1.4641219
14	0x3fbec0e3	1.4902614
15	0x3fb6ade4	1.4271817
16	0x3fa73e2c	1.3065848
17	0x3fae7ede	1.3632467
18	0x3faf3dfa	1.3690789
19	0x3fb316d4	1.3991342
20	0x3fb8bae6	1.4432037
21	0x3fa6a2be	1.3018415
22	0x3fbf42e5	1.494229
23	0x3fcba654	1.5910134
24	0x3faf15f5	1.3678576
25	0x3faf36b4	1.3688569
26	0x3fa78ca1	1.3089792
27	0x3fb08ffb	1.3793939
28	0x3fc155b2	1.5104277
29	0x3fb1f25e	1.390209
30	0x3fbe6400	1.4874268
31	0x3faef6b6	1.366904
32	0x3fa6148f	1.2975024
33	0x3fbe45d5	1.4865061
34	0x3fac13ee	1.3443582
35	0x3faf4847	1.3693932
36	0x3fa61f23	1.2978252
37	0x3fb18502	1.3868716
38	0x3f9f033a	1.242286
39	0x3f9db420	1.2320595
40	0x3fb4aef2	1.4115889
41	0x3fb61a1c	1.4226718
42	0x3fbed9b4	1.4910188
43	0x3fb914ea	1.4459507
44	0x3f9470fc	1.159698
45	0x3fa73f99	1.3066283
46	0x3fb3eb56	1.4056194
47	0x3fc2daaf	1.5222987
48	0x3fbc6561	1.4718438
49	0x3fb81b85	1.4383398
50	0x3fa2d059	1.2719833
51	0x3fc004da	1.500148
52	0x3fb9e247	1.4522179
53	0x3fbb36d5	1.4626108
54	0x3fbac3dd	1.4591023
55	0x3facc050	1.3496189
56	0x3fb06458	1.3780622
57	0x3faf6bd0	1.3704777
58	0x3fafb883	1.3728184
59	0x3fbc047e	1.4688871
60	0x3fa36b49	1.2767116
61	0x3faca62b	1.348821
62	0x3fb1db9d	1.3895146
63	0x3fae6547	1.3624657

encoder.2.bn.bias f4 [64]
0	0x3e8123eb	0.25222716
1	0x3ddbf4eb	0.10740074
2	0x3e934217	0.2876136
3	0x3ed4abe3	0.4153739
4	0x3e598a8c	0.21244258
5	0x3ebb091f	0.36530396
6	0x3e71f2e9	0.23627819
7	0x3ec7ab10	0.38997698
8	0x3eef7878	0.46771598
9	0x3e8e76f2	0.27825123
10	0x3e2e74a1	0.17036678
11	0x3ed1f6fa	0.4100874
12	0x3e94166a	0.2892335
13	0x3e8951c7	0.26820204
14	0x3e67cc31	0.22636487
15	0x3ea45ef3	0.3210369
16	0x3ea3d3c0	0.3199749
17	0x3e72ecec	0.23723191
18	0x3eaa2c6c	0.33237016
19	0x3ee5e6ab	0.44902548
20	0x3e2707e3	0.16311602
21	0x3e39485e	0.18094012
22	0x3ec59832	0.38592678
23	0x3eb5526d	0.35414448
24	0x3ecaf835	0.39642492
25	0x3e3b2329	0.18275131
26	0x3eaec418	0.34133983
27	0x3e6ba1e5	0.23010977
28	0x3f13d1c9	0.5774198
29	0x3e3c1e3b	0.18370907
30	0x3eb4bbad	0.35299435
31	0x3e79a33a	0.24378672
32	0x3ea845ff	0.32865903
33	0x3ee50d93	0.4473692
34	0x3ee7005c	0.45117462
35	0x3da7377e	0.08164881
36	0x3eb4a31c	0.35280693
37	0x3e022a0b	0.1271135
38	0x3eb96065	0.36206356
39	0x3e8f0aab	0.27937827
40	0x3cfcbd1e	0.030851897
41	0x3e8bea6a	0.2732728
42	0x3f06a1eb	0.5259082
43	0x3ef0f091	0.47058538
44	0x3e603580	0.21895409
45	0x3ea733b1	0.32656625
46	0x3ec79de5	0.3898765
47	0x3ecdd89a	0.40204316
48	0x3e9bbbed	0.30416813
49	0x3e948b33	0.2901245
50	0x3e7add9d	0.24498601
51	0x3ee08d71	0.4385791
52	0x3eca51af	0.39515445
53	0x3ed0f776	0.40813798
54	0x3edb83b4	0.4287392
55	0x3e20979c	0.15682834
56	0x3eaebbea	0.34127742
57	0x3e981738	0.29705215
58	0x3ea394c4	0.31949437
59	0x3ed4a0a3	0.41528806
60	0x3e277c1a	0.16355935
61	0x3ea84957	0.32868454
62	0x3ed0f714	0.40813506
63	0x3eac7afa	0.33687574

encoder.2.bn.running_mean f4 [64]
0	0x3f292713	0.6607525
1	0x3fbb76ee	1.464567
2	0xbf6d4392	-0.9268123
3	0x3f34d5f6	0.7063898
4	0x3e844713	0.25835475
5	0x3e7af52a	0.24507585
6	0x3e9c9b23	0.3058711
7	0x3f99bf5b	1.2011522
8	0x3fba9766	1.4577453
9	0x3fd55437	1.6666325
10	0x3e24c746	0.16091642
11	0x3f73e4a9	0.9527078
12	0x3e43fc54	0.19139224
13	0x3ecdc70a	0.40190917
14	0x3fef18f4	1.867949
15	0x3f771bca	0.9652678
16	0x3f807c03	1.0037845
17	0x3eb2bc66	0.34909362
18	0x3fa20203	1.2656864
19	0x3f9ef832	1.2419493
20	0x3fb11916	1.3835781
21	0x3ebdf5ef	0.37101695
22	0x3ef2661b	0.47343525
23	0x3f151e9b	0.58249825
24	0x3f57f578	0.8435893
25	0x3eab42f6	0.33449525
26	0x3f5562b4	0.83353734
27	0x3fade1e3	1.358456
28	0x3f0e6538	0.556232
29	0x3fbfe15a	1.4990647
30	0x3edd87fc	0.4326781
31	0xbed66fcb	-0.41882166
32	0x3f89079b	1.0705446
33	0x3f93bbee	1.1541727
34	0x3f292868	0.6607728
35	0xbf3f8e36	-0.7482637
36	0x3f2d763c	0.67758536
37	0x3e77c7d1	0.24197318
38	0x3f33a2b6	0.7017015
39	0x3e8babbe	0.27279466
40	0x3fc295bf	1.5201949
41	0x3f08a13d	0.5337103
42	0x3f566345	0.83745223
43	0x3f7d4266	0.9892944
44	0x3efbd195	0.49183336
45	0x3f3334c8	0.7000241
46	0x3f439feb	0.7641589
47	0x3fe44cf6	1.7835987
48	0x3ed6430a	0.41848022
49	0x3ed495cf	0.41520545
50	0x3ef0c836	0.4702775
51	0x3f88a72a	1.0676014
52	0x3fa1dc1b	1.2645296
53	0x3f9dcf8c	1.2328963
54	0x3f2d64de	0.67732036
55	0x3ff1cdc0	1.8890915
56	0x3fa4677c	1.2844081
57	0x3ecaf095	0.39636675
58	0x3f3ab6cf	0.72935194
59	0x3f88832b	1.0665029
60	0x3fa1cca1	1.2640573
61	0x3ec63f0b	0.38719973
62	0x3f9431e6	1.1577728
63	0x3fa2667b	1.2687525

encoder.2.bn.running_var f4 [64]
0	0x40268e0a	2.6024194
1	0x40b84aa6	5.7591124
2	0x400e8c1f	2.2273023
3	0x408b86b0	4.3601913
4	0x3fbdd531	1.4830686
5	0x400f501a	2.239264
6	0x3fca05ef	1.5783061
7	0x40976cd0	4.732033
8	0x40d9e02e	6.8086157
9	0x40e675cf	7.201881
10	0x3fef7fc4	1.8710866
11	0x40451b1b	3.0797794
12	0x3fbbd59d	1.4674565
13	0x4050226f	3.2521017
14	0x41204601	10.017091
15	0x406df61d	3.7181466
16	0x406c56f0	3.6928062
17	0x402173c5	2.522691
18	0x40bb57d5	5.8544717
19	0x409554f3	4.66662
20	0x40b3c8c4	5.6182575
21	0x3fc47d90	1.5350819
22	0x40128f2a	2.289988
23	0x40523413	3.2844284
24	0x40725748	3.7865772
25	0x3ffcb9e2	1.9744227
26	0x404b3840	3.1753082
27	0x40b70dcf	5.7204356
28	0x40270467	2.6096437
29	0x40b72126	5.7227964
30	0x401697a5	2.3530056
31	0x402e5831	2.7241328
32	0x4094187c	4.627989
33	0x409b2bb4	4.849085
34	0x4023eee9	2.561457
35	0x404557e3	3.0834892
36	0x4032cc73	2.7937286
37	0x3fe0b997	1.7556638
38	0x402c4a45	2.692033
39	0x3ffe7137	1.98783
40	0x40c1d33c	6.0570354
41	0x4050c8f4	3.2622652
42	0x40489181	3.1338809
43	0x4046049a	3.0940309
44	0x400cfc50	2.2029
45	0x403c7b15	2.9450123
46	0x40458ecd	3.0868409
47	0x4103463a	8.204645
48	0x40199f32	2.4003415
49	0x402f69e7	2.7408388
50	0x400f5423	2.2395103
51	0x4075793b	3.8355243
52	0x409f18ff	4.9718013
53	0x40a29a06	5.0813017
54	0x404db37b	3.2140796
55	0x410c5452	8.770586
56	0x40c4fd74	6.155939
57	0x401e2e73	2.471585
58	0x4047e768	3.123499
59	0x40820de9	4.064198
60	0x40948ad2	4.641946
61	0x4029e481	2.6545718
62	0x408ad927	4.339008
63	0x409ca51e	4.895156

encoder.3.weight f4 [64, 64]
0	0x3cfe5a7f	0.031049011
1	0x3cfa42a5	0.030549357
2	0xbd3ff9dc	-0.046869144
3	0xbda4b973	-0.08043184
4	0x3d4ba6cf	0.049719628
5	0x3ce7a33f	0.028276084
6	0x3d770169	0.06030408
7	0x3dd35ba8	0.103202164
8	0x3ccbd13c	0.024880044
9	0xbd50ced9	-0.050978515
10	0xbe40a150	-0.18811536
11	0xbd212dd9	-0.039350364
12	0x3de31132	0.11087264
13	0xbde1ba58	-0.110218704
14	0xbdd9189f	-0.10600399
15	0xbd06a7ed	-0.03287499
16	0x3d6a4a13	0.05719955
17	0x3d62b7d6	0.0553511
18	0xbdb43ddd	-0.08800862
19	0xbcd350b6	-0.025795322
20	0x3e0ad463	0.13557582
21	0xbc151d62	-0.009101244
22	0xbe47c509	-0.19508757
23	0x3e69e464	0.2284103
24	0xbe1325f1	-0.14369942
25	0x3d60f161	0.054917697
26	0xbc592f75	-0.013255944
27	0xba893e95	-0.0010470921
28	0x3cb0dd20	0.021589816
29	0xbd823fe4	-0.063598424
30	0xbddf3b4f	-0.10899984
31	0x3dea7058	0.11447209
32	0x3da26313	0.07929053
33	0xbd89329a	-0.066991046
34	0xbd33100b	-0.04371647
35	0x3dd777b1	0.10520876
36	0x3d21cf7f	0.039504524
37	0xbd8cd612	-0.06876768
38	0x3deb3744	0.114851505
39	0xbd4c9b52	-0.049952812
40	0xbc426855	-0.011865695
41	0x3e11307c	0.14178652
42	0xbc8d4026	-0.017242502
43	0xbc349267	-0.011021233
44	0xbd1aa721	-0.037757043
45	0xbd3d6b15	-0.0462447
46	0x3d9b53ea	0.07584365
47	0xbe25e964	-0.16202313
48	0xbd995d9b	-0.07488557
49	0xbcd834b3	-0.026392316
50	0xbd3778cd	-0.04479294
51	0x3d30da70	0.04317707
52	0xbd824e30	-0.06362569
53	0xbc904db9	-0.017615186
54	0xbdf88685	-0.121350326
55	0x3ce7c3ee	0.028291669
56	0xbb1ad7ae	-0.002362709
57	0x3c966561	0.018358888
58	0xbd9382ce	-0.072026834
59	0x3d95f816	0.07322709
60	0xbcdcadb9	-0.026938306
61	0x3bb5d718	0.005549323
62	0x3d11b4a5	0.035572667
63	0x3d8b19a6	0.067920014
64	0x3c947499	0.018122004
65	0xbd825fbd	-0.06365917
66	0xbcacdaf6	-0.021100502
67	0x3d6b1f33	0.0574028
68	0xbe599a7a	-0.21250334
69	0xbd3e69f1	-0.046487752
70	0x3e2617e6	0.16220054
71	0x3d95a21f	0.07306313
72	0xbe2bcde7	-0.16777764
73	0xbe31004e	-0.17285272
74	0xbdd2b9bb	-0.102893315
75	0x3deb3816	0.11485307
76	0xbe249461	-0.16072227
77	0xbd877513	-0.06614127
78	0x3da23085	0.079194106
79	0xbe2c45c5	-0.1682349
80	0xbdfc9c61	-0.123345144
81	0xbc5d4bf9	-0.013506883
82	0xbd201579	-0.039082978
83	0x3d9dac5d	0.07698891
84	0x3e017fdd	0.12646432
85	0x3df3eead	0.11910758
86	0x3ddc3214	0.10751739
87	0xbdd10b50	-0.10207236
88	0x3e01fd0f	0.1269419
89	0x3e86b166	0.2630722
90	0xbdc4ff52	-0.09619011
91	0xbd8df49c	-0.06931421
92	0x3dc84ffd	0.097808816
93	0x3deb1e8f	0.11480438
94	0x3dfa82f8	0.122320116
95	0x3e2a498b	0.16629617
96	0xbe2b628d	-0.16736813
97	0xbdbda5f9	-0.092601724
98	0xbe1ea298	-0.15491712
99	0xbe14bf99	-0.14526214
100	0x3e96a038	0.29419112
101	0xbe28882d	-0.16458197
102	0x3d4e54a4	0.05037369
103	0xbd465a24	-0.04842581
104	0xbdca6964	-0.09883383
105	0x3c075e69	0.008262255
106	0x3e583afa	0.21116248
107	0x3b8ef0ea	0.0043622153
108	0xbe4a5334	-0.19758302
109	0xbdd425b7	-0.10358756
110	0x3e3de195	0.18543084
111	0x3d5115a4	0.05104603
112	0xbe02d422	-0.12776235
113	0xbb42cd30	-0.0029724352
114	0x3e6edeed	0.23327227
115	0xbe1d0306	-0.15333185
116	0xbe46cd1c	-0.1941418
117	0xbe1e9789	-0.15487494
118	0x3c80ea9c	0.01573687
119	0x3d6c1c14	0.057643965
120	0xbdb9805e	-0.09057687
121	0x3d9b2c7c	0.07576844
122	0x3df67ee6	0.12035923
123	0x3d8121b9	0.0630526
124	0xbd6311de	-0.05543696
125	0xbd38a53b	-0.04507945
126	0x3de37166	0.111056134
127	0x3dca66bd	0.09882877
128	0x3cd92a35	0.026509384
129	0x3e003d33	0.12523346
130	0xbd23e21a	-0.04001055
131	0xbe1e62fe	-0.1546745
132	0xbda8029a	-0.08203621
133	0xbe42faad	-0.19040938
134	0xbdbd7579	-0.09250922
135	0x3d35697c	0.04429005
136	0xbdc1015a	-0.09424086
137	0x3da5240e	0.080635175
138	0xbdd54ba4	-0.10414818
139	0x3d2cada4	0.042157784
140	0xbdbb49ed	-0.091449596
141	0x3d0c1000	0.034194946
142	0x3d09e469	0.033665095
143	0xba011918	-0.0004924699
144	0x3c920fb2	0.01782975
145	0x3d2da111	0.042389933
146	0xbd3b2769	-0.04569188
147	0xbd9db10b	-0.07699784
148	0xbe52946a	-0.20564428
149	0xbde490aa	-0.11160405
150	0xbc84ef64	-0.016227432
151	0xbd9f2a90	-0.0777179
152	0xbd53a028	-0.05166641
153	0xbb15a97d	-0.0022836619
154	0xbdc78378	-0.097418725
155	0xbb73b3b0	-0.003718596
156	0x3e3874ce	0.18013307
157	0x3c8f02d0	0.017457396
158	0xbde95001	-0.11392213
159	0xbe2c8bdb	-0.16850226
160	0x3c5b8ac9	0.013399788
161	0x3dae5423	0.085121416
162	0xbd59c4cf	-0.053166207
163	0x3d62a594	0.05533369
164	0x3d034841	0.03205133
165	0xbe1a6724	-0.15078408
166	0xbcccf729	-0.025020199
167	0xbdc88d52	-0.0979258
168	0x3e0abdbc	0.1354894
169	0x3db0eb30	0.086386085
170	0xbc283aba	-0.010267908
171	0xbd010ca5	-0.0315062
172	0x3d819346	0.06326918
173	0xbd938bc5	-0.07204393
174	0xbdeeef2c	-0.11666712
175	0x3df873e9	0.12131483
176	0x3dbd4030	0.092407584
177	0x3dd4b670	0.1038636
178	0x3cac02bf	0.020997403
179	0xbe1e105d	-0.1543593
180	0x3d6b52e0	0.057452083
181	0x3dab3330	0.083593726
182	0x3cbbf1ef	0.022942511
183	0x3e26f334	0.16303712
184	0x3dc9c85b	0.09852668
185	0x3da31bfe	0.079643235
186	0xbe06082d	-0.13089056
187	0xbe23a9cb	-0.1598274
188	0xbe3231de	-0.17401835
189	0x3de730eb	0.11288627
190	0xbc848177	-0.016175015
191	0xbd3aff77	-0.045653787
192	0x3d160967	0.03663006
193	0xbdd09808	-0.10185248
194	0xbdc6a93a	-0.09700246
195	0x3d0e1887	0.03469136
196	0xbc608715	-0.013704081
197	0x3d501530	0.050801456
198	0xbd00225a	-0.03128276
199	0x3df19f83	0.117980026
200	0xbd981281	-0.07425404
201	0x3e08ebe2	0.13371232
202	0x3e4c8220	0.19971514
203	0xbce450af	-0.027870504
204	0x3e21befa	0.15795508
205	0xbe02b965	-0.12766035
206	0x3dfd22f9	0.12360186
207	0xbd02fd91	-0.0319801
208	0x3eb308be	0.34967607
209	0x3e0d8674	0.13820821
210	0xbe4013de	-0.18757579
211	0x3cb8caf7	0.022557719
212	0x3d29243a	0.041294314
213	0x3e2beb95	0.16789086
214	0x3e686700	0.22695541
215	0x3cdbd207	0.026833547
216	0xbdbe1300	-0.09280968
217	0x3c89cefd	0.016822333
218	0xbe088fab	-0.13336055
219	0x3d1a4335	0.03766175
220	0xbd8dc47f	-0.06922244
221	0x3db12f06	0.08651547
222	0x3e1d2597	0.1534637
223	0x3dfc6025	0.123230256
224	0xbd0a28a7	-0.033730175
225	0xbd72f09b	-0.05931149
226	0x3cba5cc3	0.02274931
227	0x3c2af2f8	0.010433905
228	0x3e380c32	0.17973402
229	0xbd7864e0	-0.060643077
230	0x3dc7a0fb	0.097475015
231	0x3e0584ef	0.13038991
232	0xbd68512d	-0.05671804
233	0xbdad7b71	-0.0847081
234	0x3d5b9836	0.053611957
235	0x3de93f65	0.11389045
236	0x3cf36aa3	0.029713934
237	0x3dc5b2f3	0.096532725
238	0xbd9aae9b	-0.075528346
239	0xbe111abc	-0.14170355
240	0xbdde01fd	-0.10840223
241	0xbd0eecfe	-0.034893982
242	0x3d2584c8	0.040409833
243	0x3db2b5ec	0.08726105
244	0x3db1f654	0.086895615
245	0xbe29f85c	-0.16598648
246	0xbd6676ac	-0.056265518
247	0xbd390de6	-0.04517927
248	0x3d2228b4	0.0395896
249	0x3bbb41a4	0.005714612
250	0x3e312073	0.17297535
251	0x3e731521	0.23738529
252	0x3d93265f	0.07185053
253	0xbdddefd2	-0.10836758
254	0xbdca17eb	-0.09867843
255	0x3d9afc51	0.07567657

encoder.3.bn.weight f4 [64]
0	0x3f8e49a6	1.1116226
1	0x3f84ac41	1.0365068
2	0x3f92811c	1.1445651
3	0x3f8a69fd	1.0813595
4	0x3f9643ce	1.1739442
5	0x3f81bc43	1.0135578
6	0x3f860cd0	1.047266
7	0x3f90ec87	1.1322182
8	0x3f81315e	1.0093191
9	0x3f85c9c9	1.0452205
10	0x3f878750	1.0588169
11	0x3f92a6d5	1.1457163
12	0x3f8c987b	1.0984033
13	0x3f87941a	1.0592072
14	0x3f9925c3	1.1964649
15	0x3f83ba24	1.0291181
16	0x3f85bec1	1.0448838
17	0x3f89bc8b	1.0760664
18	0x3f7f94a8	0.99836206
19	0x3f8c8756	1.0978801
20	0x3f7fe77c	0.9996259
21	0x3f81b167	1.0132264
22	0x3f82ef4b	1.0229276
23	0x3f8997be	1.0749433
24	0x3f8974d8	1.0738783
25	0x3f857fbd	1.0429608
26	0x3f8f2189	1.1182109
27	0x3f8f12ca	1.1177609
28	0x3f836dca	1.026788
29	0x3f84254c	1.0323882
30	0x3f88aec6	1.0678337
31	0x3f800745	1.0002218
32	0x3f81098d	1.008104
33	0x3f828a24	1.0198407
34	0x3f92276a	1.1418278
35	0x3f8c712f	1.0972041
36	0x3f8912ad	1.0708824
37	0x3f8bf6b4	1.0934663
38	0x3f903d11	1.1268636
39	0x3f871990	1.0554676
40	0x3f8f8502	1.1212466
41	0x3f85f6f3	1.0465988
42	0x3f85306f	1.0405406
43	0x3f964e14	1.1742578
44	0x3f7ed867	0.99548954
45	0x3f8eeb12	1.1165488
46	0x3f8e6d8c	1.1127181
47	0x3f86a996	1.0520504
48	0x3f89c4ca	1.076318
49	0x3f8b9f9d	1.0908085
50	0x3f9177ac	1.1364646
51	0x3f7df823	0.9920675
52	0x3f8506ce	1.0392702
53	0x3f8c68a7	1.0969437
54	0x3f7a1c27	0.9769921
55	0x3f86a9ed	1.0520607
56	0x3f8450c0	1.0337143
57	0x3f777380	0.96660614
58	0x3f901782	1.1257174
59	0x3f8d74f5	1.1051317
60	0x3f8a88e3	1.0823025
61	0x3f8bb0d1	1.0913335
62	0x3f912136	1.133826
63	0x3f8d5ca3	1.1043895

encoder.3.bn.bias f4 [64]
0	0x3e0e0dd2	0.1387246
1	0x3e5bb3be	0.21455285
2	0x3e5ec239	0.21753778
3	0x3e1599c8	0.14609444
4	0x3e125cfa	0.1429328
5	0x3e366c30	0.17814708
6	0x3d8c31db	0.06845447
7	0x3e4d6362	0.20057443
8	0x3cb56459	0.022142576
9	0x3e395fa6	0.18102893
10	0x3c482f5d	0.012218324
11	0x3e80835a	0.25100213
12	0x3e29083c	0.16507047
13	0x3e5575b9	0.20845689
14	0x3e617e91	0.22020938
15	0x3bcf93d1	0.0063347598
16	0x3e3a1c44	0.18174845
17	0x3e4f7e66	0.20263061
18	0x3e9282f7	0.28615543
19	0x3e22664b	0.15859334
20	0x3e78f302	0.2431145
21	0x3e92959c	0.28629768
22	0xbdf68e72	-0.12038888
23	0x3e4fb10d	0.20282383
24	0x3e3e7e68	0.18602908
25	0xbe7f8b75	-0.24955542
26	0x3d8d9b42	0.06914379
27	0x3e227fe4	0.15869099
28	0x3da6bf45	0.081419505
29	0xbd65b535	-0.056081016
30	0xbccc7219	-0.02495675
31	0x3e950cb4	0.29111254
32	0x3e2f286d	0.17105265
33	0x3e62706e	0.22113201
34	0x3e90e199	0.28297117
35	0xbaec7e70	-0.0018043052
36	0x3c83544e	0.01603141
37	0x3e9006cc	0.28130186
38	0x3da1e990	0.07905877
39	0x3e693a03	0.22776036
40	0x3e87a962	0.26496416
41	0x3d51591b	0.05111037
42	0x3d9732cb	0.07382735
43	0x3e28e5f2	0.16493967
44	0x3e038660	0.12844229
45	0x3e95acdd	0.29233447
46	0x3ea8c23e	0.32960695
47	0x3e2f5f80	0.17126274
48	0x3e7e4f1b	0.24834864
49	0x3e73b661	0.23800041
50	0x3aa5cd7d	0.0012649741
51	0x3ec1229c	0.37721717
52	0xbb2e17e8	-0.0026564542
53	0x3dd8f810	0.10594189
54	0x3dc960da	0.09832926
55	0x3dfa01b4	0.12207356
56	0x3e13ff53	0.14452867
57	0x3ea358d2	0.31903702
58	0xbcb4ca57	-0.02206914
59	0xbd1154db	-0.035481315
60	0x3e2ba581	0.16762353
61	0x3e3b0473	0.18263416
62	0x3e6f083f	0.2334299
63	0x3e1dc993	0.15408926
